<?xml version="1.0" ?>
<net name="saved_model" version="10">
	<layers>
		<layer id="0" name="input_1" type="Parameter" version="opset1">
			<data shape="1, 3, 224, 224" element_type="f32"/>
			<output>
				<port id="0" precision="FP32" names="input_1:0">
					<dim>1</dim>
					<dim>3</dim>
					<dim>224</dim>
					<dim>224</dim>
				</port>
			</output>
		</layer>
		<layer id="1" name="data_mul_12128" type="Const" version="opset1">
			<data element_type="f32" shape="1, 3, 1, 1" offset="0" size="12"/>
			<output>
				<port id="0" precision="FP32">
					<dim>1</dim>
					<dim>3</dim>
					<dim>1</dim>
					<dim>1</dim>
				</port>
			</output>
		</layer>
		<layer id="2" name="input_1/scale/Fused_Mul_" type="Multiply" version="opset1">
			<data auto_broadcast="numpy"/>
			<input>
				<port id="0" precision="FP32">
					<dim>1</dim>
					<dim>3</dim>
					<dim>224</dim>
					<dim>224</dim>
				</port>
				<port id="1" precision="FP32">
					<dim>1</dim>
					<dim>3</dim>
					<dim>1</dim>
					<dim>1</dim>
				</port>
			</input>
			<output>
				<port id="2" precision="FP32">
					<dim>1</dim>
					<dim>3</dim>
					<dim>224</dim>
					<dim>224</dim>
				</port>
			</output>
		</layer>
		<layer id="3" name="data_add_12130" type="Const" version="opset1">
			<data element_type="f32" shape="1, 3, 1, 1" offset="12" size="12"/>
			<output>
				<port id="0" precision="FP32">
					<dim>1</dim>
					<dim>3</dim>
					<dim>1</dim>
					<dim>1</dim>
				</port>
			</output>
		</layer>
		<layer id="4" name="input_1/mean/Fused_Add_" type="Add" version="opset1">
			<data auto_broadcast="numpy"/>
			<input>
				<port id="0" precision="FP32">
					<dim>1</dim>
					<dim>3</dim>
					<dim>224</dim>
					<dim>224</dim>
				</port>
				<port id="1" precision="FP32">
					<dim>1</dim>
					<dim>3</dim>
					<dim>1</dim>
					<dim>1</dim>
				</port>
			</input>
			<output>
				<port id="2" precision="FP32" names="Func/StatefulPartitionedCall/input/_0:0">
					<dim>1</dim>
					<dim>3</dim>
					<dim>224</dim>
					<dim>224</dim>
				</port>
			</output>
		</layer>
		<layer id="5" name="StatefulPartitionedCall/model/bn_Conv1/FusedBatchNormV3/mean/Fused_Mul__copy" type="Const" version="opset1">
			<data element_type="f32" shape="32, 3, 3, 3" offset="24" size="3456"/>
			<output>
				<port id="0" precision="FP32" names="StatefulPartitionedCall/model/Conv1/Conv2D/ReadVariableOp:0">
					<dim>32</dim>
					<dim>3</dim>
					<dim>3</dim>
					<dim>3</dim>
				</port>
			</output>
		</layer>
		<layer id="6" name="StatefulPartitionedCall/model/Conv1/Conv2D" type="Convolution" version="opset1">
			<data strides="2, 2" dilations="1, 1" pads_begin="0, 0" pads_end="1, 1" auto_pad="same_upper"/>
			<input>
				<port id="0" precision="FP32">
					<dim>1</dim>
					<dim>3</dim>
					<dim>224</dim>
					<dim>224</dim>
				</port>
				<port id="1" precision="FP32">
					<dim>32</dim>
					<dim>3</dim>
					<dim>3</dim>
					<dim>3</dim>
				</port>
			</input>
			<output>
				<port id="2" precision="FP32">
					<dim>1</dim>
					<dim>32</dim>
					<dim>112</dim>
					<dim>112</dim>
				</port>
			</output>
		</layer>
		<layer id="7" name="data_add_1213312138" type="Const" version="opset1">
			<data element_type="f32" shape="1, 32, 1, 1" offset="3480" size="128"/>
			<output>
				<port id="0" precision="FP32">
					<dim>1</dim>
					<dim>32</dim>
					<dim>1</dim>
					<dim>1</dim>
				</port>
			</output>
		</layer>
		<layer id="8" name="StatefulPartitionedCall/model/bn_Conv1/FusedBatchNormV3/variance/Fused_Add_" type="Add" version="opset1">
			<data auto_broadcast="numpy"/>
			<input>
				<port id="0" precision="FP32">
					<dim>1</dim>
					<dim>32</dim>
					<dim>112</dim>
					<dim>112</dim>
				</port>
				<port id="1" precision="FP32">
					<dim>1</dim>
					<dim>32</dim>
					<dim>1</dim>
					<dim>1</dim>
				</port>
			</input>
			<output>
				<port id="2" precision="FP32" names="StatefulPartitionedCall/model/bn_Conv1/FusedBatchNormV3:0">
					<dim>1</dim>
					<dim>32</dim>
					<dim>112</dim>
					<dim>112</dim>
				</port>
			</output>
		</layer>
		<layer id="9" name="StatefulPartitionedCall/model/Conv1_relu/Relu6" type="Clamp" version="opset1">
			<data min="0" max="6"/>
			<input>
				<port id="0" precision="FP32">
					<dim>1</dim>
					<dim>32</dim>
					<dim>112</dim>
					<dim>112</dim>
				</port>
			</input>
			<output>
				<port id="1" precision="FP32" names="StatefulPartitionedCall/model/Conv1_relu/Relu6:0">
					<dim>1</dim>
					<dim>32</dim>
					<dim>112</dim>
					<dim>112</dim>
				</port>
			</output>
		</layer>
		<layer id="10" name="StatefulPartitionedCall/model/expanded_conv_depthwise_BN/FusedBatchNormV3/mean/Fused_Mul__copy" type="Const" version="opset1">
			<data element_type="f32" shape="32, 1, 1, 3, 3" offset="3608" size="1152"/>
			<output>
				<port id="0" precision="FP32" names="StatefulPartitionedCall/model/expanded_conv_depthwise/depthwise/ReadVariableOp:0">
					<dim>32</dim>
					<dim>1</dim>
					<dim>1</dim>
					<dim>3</dim>
					<dim>3</dim>
				</port>
			</output>
		</layer>
		<layer id="11" name="StatefulPartitionedCall/model/expanded_conv_depthwise/depthwise" type="GroupConvolution" version="opset1">
			<data strides="1, 1" pads_begin="1, 1" pads_end="1, 1" dilations="1, 1" auto_pad="same_upper"/>
			<input>
				<port id="0" precision="FP32">
					<dim>1</dim>
					<dim>32</dim>
					<dim>112</dim>
					<dim>112</dim>
				</port>
				<port id="1" precision="FP32">
					<dim>32</dim>
					<dim>1</dim>
					<dim>1</dim>
					<dim>3</dim>
					<dim>3</dim>
				</port>
			</input>
			<output>
				<port id="2" precision="FP32">
					<dim>1</dim>
					<dim>32</dim>
					<dim>112</dim>
					<dim>112</dim>
				</port>
			</output>
		</layer>
		<layer id="12" name="data_add_1214112146" type="Const" version="opset1">
			<data element_type="f32" shape="1, 32, 1, 1" offset="4760" size="128"/>
			<output>
				<port id="0" precision="FP32">
					<dim>1</dim>
					<dim>32</dim>
					<dim>1</dim>
					<dim>1</dim>
				</port>
			</output>
		</layer>
		<layer id="13" name="StatefulPartitionedCall/model/expanded_conv_depthwise_BN/FusedBatchNormV3/variance/Fused_Add_" type="Add" version="opset1">
			<data auto_broadcast="numpy"/>
			<input>
				<port id="0" precision="FP32">
					<dim>1</dim>
					<dim>32</dim>
					<dim>112</dim>
					<dim>112</dim>
				</port>
				<port id="1" precision="FP32">
					<dim>1</dim>
					<dim>32</dim>
					<dim>1</dim>
					<dim>1</dim>
				</port>
			</input>
			<output>
				<port id="2" precision="FP32" names="StatefulPartitionedCall/model/expanded_conv_depthwise_BN/FusedBatchNormV3:0">
					<dim>1</dim>
					<dim>32</dim>
					<dim>112</dim>
					<dim>112</dim>
				</port>
			</output>
		</layer>
		<layer id="14" name="StatefulPartitionedCall/model/expanded_conv_depthwise_relu/Relu6" type="Clamp" version="opset1">
			<data min="0" max="6"/>
			<input>
				<port id="0" precision="FP32">
					<dim>1</dim>
					<dim>32</dim>
					<dim>112</dim>
					<dim>112</dim>
				</port>
			</input>
			<output>
				<port id="1" precision="FP32" names="StatefulPartitionedCall/model/expanded_conv_depthwise_relu/Relu6:0">
					<dim>1</dim>
					<dim>32</dim>
					<dim>112</dim>
					<dim>112</dim>
				</port>
			</output>
		</layer>
		<layer id="15" name="StatefulPartitionedCall/model/expanded_conv_project_BN/FusedBatchNormV3/mean/Fused_Mul__copy" type="Const" version="opset1">
			<data element_type="f32" shape="16, 32, 1, 1" offset="4888" size="2048"/>
			<output>
				<port id="0" precision="FP32" names="StatefulPartitionedCall/model/expanded_conv_project/Conv2D/ReadVariableOp:0">
					<dim>16</dim>
					<dim>32</dim>
					<dim>1</dim>
					<dim>1</dim>
				</port>
			</output>
		</layer>
		<layer id="16" name="StatefulPartitionedCall/model/expanded_conv_project/Conv2D" type="Convolution" version="opset1">
			<data strides="1, 1" dilations="1, 1" pads_begin="0, 0" pads_end="0, 0" auto_pad="same_upper"/>
			<input>
				<port id="0" precision="FP32">
					<dim>1</dim>
					<dim>32</dim>
					<dim>112</dim>
					<dim>112</dim>
				</port>
				<port id="1" precision="FP32">
					<dim>16</dim>
					<dim>32</dim>
					<dim>1</dim>
					<dim>1</dim>
				</port>
			</input>
			<output>
				<port id="2" precision="FP32">
					<dim>1</dim>
					<dim>16</dim>
					<dim>112</dim>
					<dim>112</dim>
				</port>
			</output>
		</layer>
		<layer id="17" name="data_add_1214912154" type="Const" version="opset1">
			<data element_type="f32" shape="1, 16, 1, 1" offset="6936" size="64"/>
			<output>
				<port id="0" precision="FP32">
					<dim>1</dim>
					<dim>16</dim>
					<dim>1</dim>
					<dim>1</dim>
				</port>
			</output>
		</layer>
		<layer id="18" name="StatefulPartitionedCall/model/expanded_conv_project_BN/FusedBatchNormV3/variance/Fused_Add_" type="Add" version="opset1">
			<data auto_broadcast="numpy"/>
			<input>
				<port id="0" precision="FP32">
					<dim>1</dim>
					<dim>16</dim>
					<dim>112</dim>
					<dim>112</dim>
				</port>
				<port id="1" precision="FP32">
					<dim>1</dim>
					<dim>16</dim>
					<dim>1</dim>
					<dim>1</dim>
				</port>
			</input>
			<output>
				<port id="2" precision="FP32" names="StatefulPartitionedCall/model/expanded_conv_project_BN/FusedBatchNormV3:0">
					<dim>1</dim>
					<dim>16</dim>
					<dim>112</dim>
					<dim>112</dim>
				</port>
			</output>
		</layer>
		<layer id="19" name="StatefulPartitionedCall/model/block_1_expand_BN/FusedBatchNormV3/mean/Fused_Mul__copy" type="Const" version="opset1">
			<data element_type="f32" shape="96, 16, 1, 1" offset="7000" size="6144"/>
			<output>
				<port id="0" precision="FP32" names="StatefulPartitionedCall/model/block_1_expand/Conv2D/ReadVariableOp:0">
					<dim>96</dim>
					<dim>16</dim>
					<dim>1</dim>
					<dim>1</dim>
				</port>
			</output>
		</layer>
		<layer id="20" name="StatefulPartitionedCall/model/block_1_expand/Conv2D" type="Convolution" version="opset1">
			<data strides="1, 1" dilations="1, 1" pads_begin="0, 0" pads_end="0, 0" auto_pad="same_upper"/>
			<input>
				<port id="0" precision="FP32">
					<dim>1</dim>
					<dim>16</dim>
					<dim>112</dim>
					<dim>112</dim>
				</port>
				<port id="1" precision="FP32">
					<dim>96</dim>
					<dim>16</dim>
					<dim>1</dim>
					<dim>1</dim>
				</port>
			</input>
			<output>
				<port id="2" precision="FP32">
					<dim>1</dim>
					<dim>96</dim>
					<dim>112</dim>
					<dim>112</dim>
				</port>
			</output>
		</layer>
		<layer id="21" name="data_add_1215712162" type="Const" version="opset1">
			<data element_type="f32" shape="1, 96, 1, 1" offset="13144" size="384"/>
			<output>
				<port id="0" precision="FP32">
					<dim>1</dim>
					<dim>96</dim>
					<dim>1</dim>
					<dim>1</dim>
				</port>
			</output>
		</layer>
		<layer id="22" name="StatefulPartitionedCall/model/block_1_expand_BN/FusedBatchNormV3/variance/Fused_Add_" type="Add" version="opset1">
			<data auto_broadcast="numpy"/>
			<input>
				<port id="0" precision="FP32">
					<dim>1</dim>
					<dim>96</dim>
					<dim>112</dim>
					<dim>112</dim>
				</port>
				<port id="1" precision="FP32">
					<dim>1</dim>
					<dim>96</dim>
					<dim>1</dim>
					<dim>1</dim>
				</port>
			</input>
			<output>
				<port id="2" precision="FP32" names="StatefulPartitionedCall/model/block_1_expand_BN/FusedBatchNormV3:0">
					<dim>1</dim>
					<dim>96</dim>
					<dim>112</dim>
					<dim>112</dim>
				</port>
			</output>
		</layer>
		<layer id="23" name="StatefulPartitionedCall/model/block_1_expand_relu/Relu6" type="Clamp" version="opset1">
			<data min="0" max="6"/>
			<input>
				<port id="0" precision="FP32">
					<dim>1</dim>
					<dim>96</dim>
					<dim>112</dim>
					<dim>112</dim>
				</port>
			</input>
			<output>
				<port id="1" precision="FP32" names="StatefulPartitionedCall/model/block_1_expand_relu/Relu6:0">
					<dim>1</dim>
					<dim>96</dim>
					<dim>112</dim>
					<dim>112</dim>
				</port>
			</output>
		</layer>
		<layer id="24" name="1620121644" type="Const" version="opset1">
			<data element_type="i64" shape="4" offset="13528" size="32"/>
			<output>
				<port id="0" precision="I64">
					<dim>4</dim>
				</port>
			</output>
		</layer>
		<layer id="25" name="1620721917" type="Const" version="opset1">
			<data element_type="i64" shape="4" offset="13560" size="32"/>
			<output>
				<port id="0" precision="I64">
					<dim>4</dim>
				</port>
			</output>
		</layer>
		<layer id="26" name="Constant_53" type="Const" version="opset1">
			<data element_type="f32" shape="" offset="13592" size="4"/>
			<output>
				<port id="0" precision="FP32"/>
			</output>
		</layer>
		<layer id="27" name="StatefulPartitionedCall/model/block_1_pad/Pad" type="Pad" version="opset1">
			<data pad_mode="constant"/>
			<input>
				<port id="0" precision="FP32">
					<dim>1</dim>
					<dim>96</dim>
					<dim>112</dim>
					<dim>112</dim>
				</port>
				<port id="1" precision="I64">
					<dim>4</dim>
				</port>
				<port id="2" precision="I64">
					<dim>4</dim>
				</port>
				<port id="3" precision="FP32"/>
			</input>
			<output>
				<port id="4" precision="FP32" names="StatefulPartitionedCall/model/block_1_pad/Pad:0">
					<dim>1</dim>
					<dim>96</dim>
					<dim>113</dim>
					<dim>113</dim>
				</port>
			</output>
		</layer>
		<layer id="28" name="StatefulPartitionedCall/model/block_1_depthwise_BN/FusedBatchNormV3/mean/Fused_Mul__copy" type="Const" version="opset1">
			<data element_type="f32" shape="96, 1, 1, 3, 3" offset="13596" size="3456"/>
			<output>
				<port id="0" precision="FP32" names="StatefulPartitionedCall/model/block_1_depthwise/depthwise/ReadVariableOp:0">
					<dim>96</dim>
					<dim>1</dim>
					<dim>1</dim>
					<dim>3</dim>
					<dim>3</dim>
				</port>
			</output>
		</layer>
		<layer id="29" name="StatefulPartitionedCall/model/block_1_depthwise/depthwise" type="GroupConvolution" version="opset1">
			<data strides="2, 2" pads_begin="0, 0" pads_end="0, 0" dilations="1, 1" auto_pad="valid"/>
			<input>
				<port id="0" precision="FP32">
					<dim>1</dim>
					<dim>96</dim>
					<dim>113</dim>
					<dim>113</dim>
				</port>
				<port id="1" precision="FP32">
					<dim>96</dim>
					<dim>1</dim>
					<dim>1</dim>
					<dim>3</dim>
					<dim>3</dim>
				</port>
			</input>
			<output>
				<port id="2" precision="FP32">
					<dim>1</dim>
					<dim>96</dim>
					<dim>56</dim>
					<dim>56</dim>
				</port>
			</output>
		</layer>
		<layer id="30" name="data_add_1216512170" type="Const" version="opset1">
			<data element_type="f32" shape="1, 96, 1, 1" offset="17052" size="384"/>
			<output>
				<port id="0" precision="FP32">
					<dim>1</dim>
					<dim>96</dim>
					<dim>1</dim>
					<dim>1</dim>
				</port>
			</output>
		</layer>
		<layer id="31" name="StatefulPartitionedCall/model/block_1_depthwise_BN/FusedBatchNormV3/variance/Fused_Add_" type="Add" version="opset1">
			<data auto_broadcast="numpy"/>
			<input>
				<port id="0" precision="FP32">
					<dim>1</dim>
					<dim>96</dim>
					<dim>56</dim>
					<dim>56</dim>
				</port>
				<port id="1" precision="FP32">
					<dim>1</dim>
					<dim>96</dim>
					<dim>1</dim>
					<dim>1</dim>
				</port>
			</input>
			<output>
				<port id="2" precision="FP32" names="StatefulPartitionedCall/model/block_1_depthwise_BN/FusedBatchNormV3:0">
					<dim>1</dim>
					<dim>96</dim>
					<dim>56</dim>
					<dim>56</dim>
				</port>
			</output>
		</layer>
		<layer id="32" name="StatefulPartitionedCall/model/block_1_depthwise_relu/Relu6" type="Clamp" version="opset1">
			<data min="0" max="6"/>
			<input>
				<port id="0" precision="FP32">
					<dim>1</dim>
					<dim>96</dim>
					<dim>56</dim>
					<dim>56</dim>
				</port>
			</input>
			<output>
				<port id="1" precision="FP32" names="StatefulPartitionedCall/model/block_1_depthwise_relu/Relu6:0">
					<dim>1</dim>
					<dim>96</dim>
					<dim>56</dim>
					<dim>56</dim>
				</port>
			</output>
		</layer>
		<layer id="33" name="StatefulPartitionedCall/model/block_1_project_BN/FusedBatchNormV3/mean/Fused_Mul__copy" type="Const" version="opset1">
			<data element_type="f32" shape="24, 96, 1, 1" offset="17436" size="9216"/>
			<output>
				<port id="0" precision="FP32" names="StatefulPartitionedCall/model/block_1_project/Conv2D/ReadVariableOp:0">
					<dim>24</dim>
					<dim>96</dim>
					<dim>1</dim>
					<dim>1</dim>
				</port>
			</output>
		</layer>
		<layer id="34" name="StatefulPartitionedCall/model/block_1_project/Conv2D" type="Convolution" version="opset1">
			<data strides="1, 1" dilations="1, 1" pads_begin="0, 0" pads_end="0, 0" auto_pad="same_upper"/>
			<input>
				<port id="0" precision="FP32">
					<dim>1</dim>
					<dim>96</dim>
					<dim>56</dim>
					<dim>56</dim>
				</port>
				<port id="1" precision="FP32">
					<dim>24</dim>
					<dim>96</dim>
					<dim>1</dim>
					<dim>1</dim>
				</port>
			</input>
			<output>
				<port id="2" precision="FP32">
					<dim>1</dim>
					<dim>24</dim>
					<dim>56</dim>
					<dim>56</dim>
				</port>
			</output>
		</layer>
		<layer id="35" name="data_add_1217312178" type="Const" version="opset1">
			<data element_type="f32" shape="1, 24, 1, 1" offset="26652" size="96"/>
			<output>
				<port id="0" precision="FP32">
					<dim>1</dim>
					<dim>24</dim>
					<dim>1</dim>
					<dim>1</dim>
				</port>
			</output>
		</layer>
		<layer id="36" name="StatefulPartitionedCall/model/block_1_project_BN/FusedBatchNormV3/variance/Fused_Add_" type="Add" version="opset1">
			<data auto_broadcast="numpy"/>
			<input>
				<port id="0" precision="FP32">
					<dim>1</dim>
					<dim>24</dim>
					<dim>56</dim>
					<dim>56</dim>
				</port>
				<port id="1" precision="FP32">
					<dim>1</dim>
					<dim>24</dim>
					<dim>1</dim>
					<dim>1</dim>
				</port>
			</input>
			<output>
				<port id="2" precision="FP32" names="StatefulPartitionedCall/model/block_1_project_BN/FusedBatchNormV3:0">
					<dim>1</dim>
					<dim>24</dim>
					<dim>56</dim>
					<dim>56</dim>
				</port>
			</output>
		</layer>
		<layer id="37" name="StatefulPartitionedCall/model/block_2_expand_BN/FusedBatchNormV3/mean/Fused_Mul__copy" type="Const" version="opset1">
			<data element_type="f32" shape="144, 24, 1, 1" offset="26748" size="13824"/>
			<output>
				<port id="0" precision="FP32" names="StatefulPartitionedCall/model/block_2_expand/Conv2D/ReadVariableOp:0">
					<dim>144</dim>
					<dim>24</dim>
					<dim>1</dim>
					<dim>1</dim>
				</port>
			</output>
		</layer>
		<layer id="38" name="StatefulPartitionedCall/model/block_2_expand/Conv2D" type="Convolution" version="opset1">
			<data strides="1, 1" dilations="1, 1" pads_begin="0, 0" pads_end="0, 0" auto_pad="same_upper"/>
			<input>
				<port id="0" precision="FP32">
					<dim>1</dim>
					<dim>24</dim>
					<dim>56</dim>
					<dim>56</dim>
				</port>
				<port id="1" precision="FP32">
					<dim>144</dim>
					<dim>24</dim>
					<dim>1</dim>
					<dim>1</dim>
				</port>
			</input>
			<output>
				<port id="2" precision="FP32">
					<dim>1</dim>
					<dim>144</dim>
					<dim>56</dim>
					<dim>56</dim>
				</port>
			</output>
		</layer>
		<layer id="39" name="data_add_1218112186" type="Const" version="opset1">
			<data element_type="f32" shape="1, 144, 1, 1" offset="40572" size="576"/>
			<output>
				<port id="0" precision="FP32">
					<dim>1</dim>
					<dim>144</dim>
					<dim>1</dim>
					<dim>1</dim>
				</port>
			</output>
		</layer>
		<layer id="40" name="StatefulPartitionedCall/model/block_2_expand_BN/FusedBatchNormV3/variance/Fused_Add_" type="Add" version="opset1">
			<data auto_broadcast="numpy"/>
			<input>
				<port id="0" precision="FP32">
					<dim>1</dim>
					<dim>144</dim>
					<dim>56</dim>
					<dim>56</dim>
				</port>
				<port id="1" precision="FP32">
					<dim>1</dim>
					<dim>144</dim>
					<dim>1</dim>
					<dim>1</dim>
				</port>
			</input>
			<output>
				<port id="2" precision="FP32" names="StatefulPartitionedCall/model/block_2_expand_BN/FusedBatchNormV3:0">
					<dim>1</dim>
					<dim>144</dim>
					<dim>56</dim>
					<dim>56</dim>
				</port>
			</output>
		</layer>
		<layer id="41" name="StatefulPartitionedCall/model/block_2_expand_relu/Relu6" type="Clamp" version="opset1">
			<data min="0" max="6"/>
			<input>
				<port id="0" precision="FP32">
					<dim>1</dim>
					<dim>144</dim>
					<dim>56</dim>
					<dim>56</dim>
				</port>
			</input>
			<output>
				<port id="1" precision="FP32" names="StatefulPartitionedCall/model/block_2_expand_relu/Relu6:0">
					<dim>1</dim>
					<dim>144</dim>
					<dim>56</dim>
					<dim>56</dim>
				</port>
			</output>
		</layer>
		<layer id="42" name="StatefulPartitionedCall/model/block_2_depthwise_BN/FusedBatchNormV3/mean/Fused_Mul__copy" type="Const" version="opset1">
			<data element_type="f32" shape="144, 1, 1, 3, 3" offset="41148" size="5184"/>
			<output>
				<port id="0" precision="FP32" names="StatefulPartitionedCall/model/block_2_depthwise/depthwise/ReadVariableOp:0">
					<dim>144</dim>
					<dim>1</dim>
					<dim>1</dim>
					<dim>3</dim>
					<dim>3</dim>
				</port>
			</output>
		</layer>
		<layer id="43" name="StatefulPartitionedCall/model/block_2_depthwise/depthwise" type="GroupConvolution" version="opset1">
			<data strides="1, 1" pads_begin="1, 1" pads_end="1, 1" dilations="1, 1" auto_pad="same_upper"/>
			<input>
				<port id="0" precision="FP32">
					<dim>1</dim>
					<dim>144</dim>
					<dim>56</dim>
					<dim>56</dim>
				</port>
				<port id="1" precision="FP32">
					<dim>144</dim>
					<dim>1</dim>
					<dim>1</dim>
					<dim>3</dim>
					<dim>3</dim>
				</port>
			</input>
			<output>
				<port id="2" precision="FP32">
					<dim>1</dim>
					<dim>144</dim>
					<dim>56</dim>
					<dim>56</dim>
				</port>
			</output>
		</layer>
		<layer id="44" name="data_add_1218912194" type="Const" version="opset1">
			<data element_type="f32" shape="1, 144, 1, 1" offset="46332" size="576"/>
			<output>
				<port id="0" precision="FP32">
					<dim>1</dim>
					<dim>144</dim>
					<dim>1</dim>
					<dim>1</dim>
				</port>
			</output>
		</layer>
		<layer id="45" name="StatefulPartitionedCall/model/block_2_depthwise_BN/FusedBatchNormV3/variance/Fused_Add_" type="Add" version="opset1">
			<data auto_broadcast="numpy"/>
			<input>
				<port id="0" precision="FP32">
					<dim>1</dim>
					<dim>144</dim>
					<dim>56</dim>
					<dim>56</dim>
				</port>
				<port id="1" precision="FP32">
					<dim>1</dim>
					<dim>144</dim>
					<dim>1</dim>
					<dim>1</dim>
				</port>
			</input>
			<output>
				<port id="2" precision="FP32" names="StatefulPartitionedCall/model/block_2_depthwise_BN/FusedBatchNormV3:0">
					<dim>1</dim>
					<dim>144</dim>
					<dim>56</dim>
					<dim>56</dim>
				</port>
			</output>
		</layer>
		<layer id="46" name="StatefulPartitionedCall/model/block_2_depthwise_relu/Relu6" type="Clamp" version="opset1">
			<data min="0" max="6"/>
			<input>
				<port id="0" precision="FP32">
					<dim>1</dim>
					<dim>144</dim>
					<dim>56</dim>
					<dim>56</dim>
				</port>
			</input>
			<output>
				<port id="1" precision="FP32" names="StatefulPartitionedCall/model/block_2_depthwise_relu/Relu6:0">
					<dim>1</dim>
					<dim>144</dim>
					<dim>56</dim>
					<dim>56</dim>
				</port>
			</output>
		</layer>
		<layer id="47" name="StatefulPartitionedCall/model/block_2_project_BN/FusedBatchNormV3/mean/Fused_Mul__copy" type="Const" version="opset1">
			<data element_type="f32" shape="24, 144, 1, 1" offset="46908" size="13824"/>
			<output>
				<port id="0" precision="FP32" names="StatefulPartitionedCall/model/block_2_project/Conv2D/ReadVariableOp:0">
					<dim>24</dim>
					<dim>144</dim>
					<dim>1</dim>
					<dim>1</dim>
				</port>
			</output>
		</layer>
		<layer id="48" name="StatefulPartitionedCall/model/block_2_project/Conv2D" type="Convolution" version="opset1">
			<data strides="1, 1" dilations="1, 1" pads_begin="0, 0" pads_end="0, 0" auto_pad="same_upper"/>
			<input>
				<port id="0" precision="FP32">
					<dim>1</dim>
					<dim>144</dim>
					<dim>56</dim>
					<dim>56</dim>
				</port>
				<port id="1" precision="FP32">
					<dim>24</dim>
					<dim>144</dim>
					<dim>1</dim>
					<dim>1</dim>
				</port>
			</input>
			<output>
				<port id="2" precision="FP32">
					<dim>1</dim>
					<dim>24</dim>
					<dim>56</dim>
					<dim>56</dim>
				</port>
			</output>
		</layer>
		<layer id="49" name="data_add_1219712202" type="Const" version="opset1">
			<data element_type="f32" shape="1, 24, 1, 1" offset="60732" size="96"/>
			<output>
				<port id="0" precision="FP32">
					<dim>1</dim>
					<dim>24</dim>
					<dim>1</dim>
					<dim>1</dim>
				</port>
			</output>
		</layer>
		<layer id="50" name="StatefulPartitionedCall/model/block_2_project_BN/FusedBatchNormV3/variance/Fused_Add_" type="Add" version="opset1">
			<data auto_broadcast="numpy"/>
			<input>
				<port id="0" precision="FP32">
					<dim>1</dim>
					<dim>24</dim>
					<dim>56</dim>
					<dim>56</dim>
				</port>
				<port id="1" precision="FP32">
					<dim>1</dim>
					<dim>24</dim>
					<dim>1</dim>
					<dim>1</dim>
				</port>
			</input>
			<output>
				<port id="2" precision="FP32" names="StatefulPartitionedCall/model/block_2_project_BN/FusedBatchNormV3:0">
					<dim>1</dim>
					<dim>24</dim>
					<dim>56</dim>
					<dim>56</dim>
				</port>
			</output>
		</layer>
		<layer id="51" name="StatefulPartitionedCall/model/block_2_add/add" type="Add" version="opset1">
			<data auto_broadcast="numpy"/>
			<input>
				<port id="0" precision="FP32">
					<dim>1</dim>
					<dim>24</dim>
					<dim>56</dim>
					<dim>56</dim>
				</port>
				<port id="1" precision="FP32">
					<dim>1</dim>
					<dim>24</dim>
					<dim>56</dim>
					<dim>56</dim>
				</port>
			</input>
			<output>
				<port id="2" precision="FP32" names="StatefulPartitionedCall/model/block_2_add/add:0">
					<dim>1</dim>
					<dim>24</dim>
					<dim>56</dim>
					<dim>56</dim>
				</port>
			</output>
		</layer>
		<layer id="52" name="StatefulPartitionedCall/model/block_3_expand_BN/FusedBatchNormV3/mean/Fused_Mul__copy" type="Const" version="opset1">
			<data element_type="f32" shape="144, 24, 1, 1" offset="60828" size="13824"/>
			<output>
				<port id="0" precision="FP32" names="StatefulPartitionedCall/model/block_3_expand/Conv2D/ReadVariableOp:0">
					<dim>144</dim>
					<dim>24</dim>
					<dim>1</dim>
					<dim>1</dim>
				</port>
			</output>
		</layer>
		<layer id="53" name="StatefulPartitionedCall/model/block_3_expand/Conv2D" type="Convolution" version="opset1">
			<data strides="1, 1" dilations="1, 1" pads_begin="0, 0" pads_end="0, 0" auto_pad="same_upper"/>
			<input>
				<port id="0" precision="FP32">
					<dim>1</dim>
					<dim>24</dim>
					<dim>56</dim>
					<dim>56</dim>
				</port>
				<port id="1" precision="FP32">
					<dim>144</dim>
					<dim>24</dim>
					<dim>1</dim>
					<dim>1</dim>
				</port>
			</input>
			<output>
				<port id="2" precision="FP32">
					<dim>1</dim>
					<dim>144</dim>
					<dim>56</dim>
					<dim>56</dim>
				</port>
			</output>
		</layer>
		<layer id="54" name="data_add_1220512210" type="Const" version="opset1">
			<data element_type="f32" shape="1, 144, 1, 1" offset="74652" size="576"/>
			<output>
				<port id="0" precision="FP32">
					<dim>1</dim>
					<dim>144</dim>
					<dim>1</dim>
					<dim>1</dim>
				</port>
			</output>
		</layer>
		<layer id="55" name="StatefulPartitionedCall/model/block_3_expand_BN/FusedBatchNormV3/variance/Fused_Add_" type="Add" version="opset1">
			<data auto_broadcast="numpy"/>
			<input>
				<port id="0" precision="FP32">
					<dim>1</dim>
					<dim>144</dim>
					<dim>56</dim>
					<dim>56</dim>
				</port>
				<port id="1" precision="FP32">
					<dim>1</dim>
					<dim>144</dim>
					<dim>1</dim>
					<dim>1</dim>
				</port>
			</input>
			<output>
				<port id="2" precision="FP32" names="StatefulPartitionedCall/model/block_3_expand_BN/FusedBatchNormV3:0">
					<dim>1</dim>
					<dim>144</dim>
					<dim>56</dim>
					<dim>56</dim>
				</port>
			</output>
		</layer>
		<layer id="56" name="StatefulPartitionedCall/model/block_3_expand_relu/Relu6" type="Clamp" version="opset1">
			<data min="0" max="6"/>
			<input>
				<port id="0" precision="FP32">
					<dim>1</dim>
					<dim>144</dim>
					<dim>56</dim>
					<dim>56</dim>
				</port>
			</input>
			<output>
				<port id="1" precision="FP32" names="StatefulPartitionedCall/model/block_3_expand_relu/Relu6:0">
					<dim>1</dim>
					<dim>144</dim>
					<dim>56</dim>
					<dim>56</dim>
				</port>
			</output>
		</layer>
		<layer id="57" name="1621321704" type="Const" version="opset1">
			<data element_type="i64" shape="4" offset="13528" size="32"/>
			<output>
				<port id="0" precision="I64">
					<dim>4</dim>
				</port>
			</output>
		</layer>
		<layer id="58" name="1621921713" type="Const" version="opset1">
			<data element_type="i64" shape="4" offset="13560" size="32"/>
			<output>
				<port id="0" precision="I64">
					<dim>4</dim>
				</port>
			</output>
		</layer>
		<layer id="59" name="Constant_118" type="Const" version="opset1">
			<data element_type="f32" shape="" offset="13592" size="4"/>
			<output>
				<port id="0" precision="FP32"/>
			</output>
		</layer>
		<layer id="60" name="StatefulPartitionedCall/model/block_3_pad/Pad" type="Pad" version="opset1">
			<data pad_mode="constant"/>
			<input>
				<port id="0" precision="FP32">
					<dim>1</dim>
					<dim>144</dim>
					<dim>56</dim>
					<dim>56</dim>
				</port>
				<port id="1" precision="I64">
					<dim>4</dim>
				</port>
				<port id="2" precision="I64">
					<dim>4</dim>
				</port>
				<port id="3" precision="FP32"/>
			</input>
			<output>
				<port id="4" precision="FP32" names="StatefulPartitionedCall/model/block_3_pad/Pad:0">
					<dim>1</dim>
					<dim>144</dim>
					<dim>57</dim>
					<dim>57</dim>
				</port>
			</output>
		</layer>
		<layer id="61" name="StatefulPartitionedCall/model/block_3_depthwise_BN/FusedBatchNormV3/mean/Fused_Mul__copy" type="Const" version="opset1">
			<data element_type="f32" shape="144, 1, 1, 3, 3" offset="75228" size="5184"/>
			<output>
				<port id="0" precision="FP32" names="StatefulPartitionedCall/model/block_3_depthwise/depthwise/ReadVariableOp:0">
					<dim>144</dim>
					<dim>1</dim>
					<dim>1</dim>
					<dim>3</dim>
					<dim>3</dim>
				</port>
			</output>
		</layer>
		<layer id="62" name="StatefulPartitionedCall/model/block_3_depthwise/depthwise" type="GroupConvolution" version="opset1">
			<data strides="2, 2" pads_begin="0, 0" pads_end="0, 0" dilations="1, 1" auto_pad="valid"/>
			<input>
				<port id="0" precision="FP32">
					<dim>1</dim>
					<dim>144</dim>
					<dim>57</dim>
					<dim>57</dim>
				</port>
				<port id="1" precision="FP32">
					<dim>144</dim>
					<dim>1</dim>
					<dim>1</dim>
					<dim>3</dim>
					<dim>3</dim>
				</port>
			</input>
			<output>
				<port id="2" precision="FP32">
					<dim>1</dim>
					<dim>144</dim>
					<dim>28</dim>
					<dim>28</dim>
				</port>
			</output>
		</layer>
		<layer id="63" name="data_add_1221312218" type="Const" version="opset1">
			<data element_type="f32" shape="1, 144, 1, 1" offset="80412" size="576"/>
			<output>
				<port id="0" precision="FP32">
					<dim>1</dim>
					<dim>144</dim>
					<dim>1</dim>
					<dim>1</dim>
				</port>
			</output>
		</layer>
		<layer id="64" name="StatefulPartitionedCall/model/block_3_depthwise_BN/FusedBatchNormV3/variance/Fused_Add_" type="Add" version="opset1">
			<data auto_broadcast="numpy"/>
			<input>
				<port id="0" precision="FP32">
					<dim>1</dim>
					<dim>144</dim>
					<dim>28</dim>
					<dim>28</dim>
				</port>
				<port id="1" precision="FP32">
					<dim>1</dim>
					<dim>144</dim>
					<dim>1</dim>
					<dim>1</dim>
				</port>
			</input>
			<output>
				<port id="2" precision="FP32" names="StatefulPartitionedCall/model/block_3_depthwise_BN/FusedBatchNormV3:0">
					<dim>1</dim>
					<dim>144</dim>
					<dim>28</dim>
					<dim>28</dim>
				</port>
			</output>
		</layer>
		<layer id="65" name="StatefulPartitionedCall/model/block_3_depthwise_relu/Relu6" type="Clamp" version="opset1">
			<data min="0" max="6"/>
			<input>
				<port id="0" precision="FP32">
					<dim>1</dim>
					<dim>144</dim>
					<dim>28</dim>
					<dim>28</dim>
				</port>
			</input>
			<output>
				<port id="1" precision="FP32" names="StatefulPartitionedCall/model/block_3_depthwise_relu/Relu6:0">
					<dim>1</dim>
					<dim>144</dim>
					<dim>28</dim>
					<dim>28</dim>
				</port>
			</output>
		</layer>
		<layer id="66" name="StatefulPartitionedCall/model/block_3_project_BN/FusedBatchNormV3/mean/Fused_Mul__copy" type="Const" version="opset1">
			<data element_type="f32" shape="32, 144, 1, 1" offset="80988" size="18432"/>
			<output>
				<port id="0" precision="FP32" names="StatefulPartitionedCall/model/block_3_project/Conv2D/ReadVariableOp:0">
					<dim>32</dim>
					<dim>144</dim>
					<dim>1</dim>
					<dim>1</dim>
				</port>
			</output>
		</layer>
		<layer id="67" name="StatefulPartitionedCall/model/block_3_project/Conv2D" type="Convolution" version="opset1">
			<data strides="1, 1" dilations="1, 1" pads_begin="0, 0" pads_end="0, 0" auto_pad="same_upper"/>
			<input>
				<port id="0" precision="FP32">
					<dim>1</dim>
					<dim>144</dim>
					<dim>28</dim>
					<dim>28</dim>
				</port>
				<port id="1" precision="FP32">
					<dim>32</dim>
					<dim>144</dim>
					<dim>1</dim>
					<dim>1</dim>
				</port>
			</input>
			<output>
				<port id="2" precision="FP32">
					<dim>1</dim>
					<dim>32</dim>
					<dim>28</dim>
					<dim>28</dim>
				</port>
			</output>
		</layer>
		<layer id="68" name="data_add_1222112226" type="Const" version="opset1">
			<data element_type="f32" shape="1, 32, 1, 1" offset="99420" size="128"/>
			<output>
				<port id="0" precision="FP32">
					<dim>1</dim>
					<dim>32</dim>
					<dim>1</dim>
					<dim>1</dim>
				</port>
			</output>
		</layer>
		<layer id="69" name="StatefulPartitionedCall/model/block_3_project_BN/FusedBatchNormV3/variance/Fused_Add_" type="Add" version="opset1">
			<data auto_broadcast="numpy"/>
			<input>
				<port id="0" precision="FP32">
					<dim>1</dim>
					<dim>32</dim>
					<dim>28</dim>
					<dim>28</dim>
				</port>
				<port id="1" precision="FP32">
					<dim>1</dim>
					<dim>32</dim>
					<dim>1</dim>
					<dim>1</dim>
				</port>
			</input>
			<output>
				<port id="2" precision="FP32" names="StatefulPartitionedCall/model/block_3_project_BN/FusedBatchNormV3:0">
					<dim>1</dim>
					<dim>32</dim>
					<dim>28</dim>
					<dim>28</dim>
				</port>
			</output>
		</layer>
		<layer id="70" name="StatefulPartitionedCall/model/block_4_expand_BN/FusedBatchNormV3/mean/Fused_Mul__copy" type="Const" version="opset1">
			<data element_type="f32" shape="192, 32, 1, 1" offset="99548" size="24576"/>
			<output>
				<port id="0" precision="FP32" names="StatefulPartitionedCall/model/block_4_expand/Conv2D/ReadVariableOp:0">
					<dim>192</dim>
					<dim>32</dim>
					<dim>1</dim>
					<dim>1</dim>
				</port>
			</output>
		</layer>
		<layer id="71" name="StatefulPartitionedCall/model/block_4_expand/Conv2D" type="Convolution" version="opset1">
			<data strides="1, 1" dilations="1, 1" pads_begin="0, 0" pads_end="0, 0" auto_pad="same_upper"/>
			<input>
				<port id="0" precision="FP32">
					<dim>1</dim>
					<dim>32</dim>
					<dim>28</dim>
					<dim>28</dim>
				</port>
				<port id="1" precision="FP32">
					<dim>192</dim>
					<dim>32</dim>
					<dim>1</dim>
					<dim>1</dim>
				</port>
			</input>
			<output>
				<port id="2" precision="FP32">
					<dim>1</dim>
					<dim>192</dim>
					<dim>28</dim>
					<dim>28</dim>
				</port>
			</output>
		</layer>
		<layer id="72" name="data_add_1222912234" type="Const" version="opset1">
			<data element_type="f32" shape="1, 192, 1, 1" offset="124124" size="768"/>
			<output>
				<port id="0" precision="FP32">
					<dim>1</dim>
					<dim>192</dim>
					<dim>1</dim>
					<dim>1</dim>
				</port>
			</output>
		</layer>
		<layer id="73" name="StatefulPartitionedCall/model/block_4_expand_BN/FusedBatchNormV3/variance/Fused_Add_" type="Add" version="opset1">
			<data auto_broadcast="numpy"/>
			<input>
				<port id="0" precision="FP32">
					<dim>1</dim>
					<dim>192</dim>
					<dim>28</dim>
					<dim>28</dim>
				</port>
				<port id="1" precision="FP32">
					<dim>1</dim>
					<dim>192</dim>
					<dim>1</dim>
					<dim>1</dim>
				</port>
			</input>
			<output>
				<port id="2" precision="FP32" names="StatefulPartitionedCall/model/block_4_expand_BN/FusedBatchNormV3:0">
					<dim>1</dim>
					<dim>192</dim>
					<dim>28</dim>
					<dim>28</dim>
				</port>
			</output>
		</layer>
		<layer id="74" name="StatefulPartitionedCall/model/block_4_expand_relu/Relu6" type="Clamp" version="opset1">
			<data min="0" max="6"/>
			<input>
				<port id="0" precision="FP32">
					<dim>1</dim>
					<dim>192</dim>
					<dim>28</dim>
					<dim>28</dim>
				</port>
			</input>
			<output>
				<port id="1" precision="FP32" names="StatefulPartitionedCall/model/block_4_expand_relu/Relu6:0">
					<dim>1</dim>
					<dim>192</dim>
					<dim>28</dim>
					<dim>28</dim>
				</port>
			</output>
		</layer>
		<layer id="75" name="StatefulPartitionedCall/model/block_4_depthwise_BN/FusedBatchNormV3/mean/Fused_Mul__copy" type="Const" version="opset1">
			<data element_type="f32" shape="192, 1, 1, 3, 3" offset="124892" size="6912"/>
			<output>
				<port id="0" precision="FP32" names="StatefulPartitionedCall/model/block_4_depthwise/depthwise/ReadVariableOp:0">
					<dim>192</dim>
					<dim>1</dim>
					<dim>1</dim>
					<dim>3</dim>
					<dim>3</dim>
				</port>
			</output>
		</layer>
		<layer id="76" name="StatefulPartitionedCall/model/block_4_depthwise/depthwise" type="GroupConvolution" version="opset1">
			<data strides="1, 1" pads_begin="1, 1" pads_end="1, 1" dilations="1, 1" auto_pad="same_upper"/>
			<input>
				<port id="0" precision="FP32">
					<dim>1</dim>
					<dim>192</dim>
					<dim>28</dim>
					<dim>28</dim>
				</port>
				<port id="1" precision="FP32">
					<dim>192</dim>
					<dim>1</dim>
					<dim>1</dim>
					<dim>3</dim>
					<dim>3</dim>
				</port>
			</input>
			<output>
				<port id="2" precision="FP32">
					<dim>1</dim>
					<dim>192</dim>
					<dim>28</dim>
					<dim>28</dim>
				</port>
			</output>
		</layer>
		<layer id="77" name="data_add_1223712242" type="Const" version="opset1">
			<data element_type="f32" shape="1, 192, 1, 1" offset="131804" size="768"/>
			<output>
				<port id="0" precision="FP32">
					<dim>1</dim>
					<dim>192</dim>
					<dim>1</dim>
					<dim>1</dim>
				</port>
			</output>
		</layer>
		<layer id="78" name="StatefulPartitionedCall/model/block_4_depthwise_BN/FusedBatchNormV3/variance/Fused_Add_" type="Add" version="opset1">
			<data auto_broadcast="numpy"/>
			<input>
				<port id="0" precision="FP32">
					<dim>1</dim>
					<dim>192</dim>
					<dim>28</dim>
					<dim>28</dim>
				</port>
				<port id="1" precision="FP32">
					<dim>1</dim>
					<dim>192</dim>
					<dim>1</dim>
					<dim>1</dim>
				</port>
			</input>
			<output>
				<port id="2" precision="FP32" names="StatefulPartitionedCall/model/block_4_depthwise_BN/FusedBatchNormV3:0">
					<dim>1</dim>
					<dim>192</dim>
					<dim>28</dim>
					<dim>28</dim>
				</port>
			</output>
		</layer>
		<layer id="79" name="StatefulPartitionedCall/model/block_4_depthwise_relu/Relu6" type="Clamp" version="opset1">
			<data min="0" max="6"/>
			<input>
				<port id="0" precision="FP32">
					<dim>1</dim>
					<dim>192</dim>
					<dim>28</dim>
					<dim>28</dim>
				</port>
			</input>
			<output>
				<port id="1" precision="FP32" names="StatefulPartitionedCall/model/block_4_depthwise_relu/Relu6:0">
					<dim>1</dim>
					<dim>192</dim>
					<dim>28</dim>
					<dim>28</dim>
				</port>
			</output>
		</layer>
		<layer id="80" name="StatefulPartitionedCall/model/block_4_project_BN/FusedBatchNormV3/mean/Fused_Mul__copy" type="Const" version="opset1">
			<data element_type="f32" shape="32, 192, 1, 1" offset="132572" size="24576"/>
			<output>
				<port id="0" precision="FP32" names="StatefulPartitionedCall/model/block_4_project/Conv2D/ReadVariableOp:0">
					<dim>32</dim>
					<dim>192</dim>
					<dim>1</dim>
					<dim>1</dim>
				</port>
			</output>
		</layer>
		<layer id="81" name="StatefulPartitionedCall/model/block_4_project/Conv2D" type="Convolution" version="opset1">
			<data strides="1, 1" dilations="1, 1" pads_begin="0, 0" pads_end="0, 0" auto_pad="same_upper"/>
			<input>
				<port id="0" precision="FP32">
					<dim>1</dim>
					<dim>192</dim>
					<dim>28</dim>
					<dim>28</dim>
				</port>
				<port id="1" precision="FP32">
					<dim>32</dim>
					<dim>192</dim>
					<dim>1</dim>
					<dim>1</dim>
				</port>
			</input>
			<output>
				<port id="2" precision="FP32">
					<dim>1</dim>
					<dim>32</dim>
					<dim>28</dim>
					<dim>28</dim>
				</port>
			</output>
		</layer>
		<layer id="82" name="data_add_1224512250" type="Const" version="opset1">
			<data element_type="f32" shape="1, 32, 1, 1" offset="157148" size="128"/>
			<output>
				<port id="0" precision="FP32">
					<dim>1</dim>
					<dim>32</dim>
					<dim>1</dim>
					<dim>1</dim>
				</port>
			</output>
		</layer>
		<layer id="83" name="StatefulPartitionedCall/model/block_4_project_BN/FusedBatchNormV3/variance/Fused_Add_" type="Add" version="opset1">
			<data auto_broadcast="numpy"/>
			<input>
				<port id="0" precision="FP32">
					<dim>1</dim>
					<dim>32</dim>
					<dim>28</dim>
					<dim>28</dim>
				</port>
				<port id="1" precision="FP32">
					<dim>1</dim>
					<dim>32</dim>
					<dim>1</dim>
					<dim>1</dim>
				</port>
			</input>
			<output>
				<port id="2" precision="FP32" names="StatefulPartitionedCall/model/block_4_project_BN/FusedBatchNormV3:0">
					<dim>1</dim>
					<dim>32</dim>
					<dim>28</dim>
					<dim>28</dim>
				</port>
			</output>
		</layer>
		<layer id="84" name="StatefulPartitionedCall/model/block_4_add/add" type="Add" version="opset1">
			<data auto_broadcast="numpy"/>
			<input>
				<port id="0" precision="FP32">
					<dim>1</dim>
					<dim>32</dim>
					<dim>28</dim>
					<dim>28</dim>
				</port>
				<port id="1" precision="FP32">
					<dim>1</dim>
					<dim>32</dim>
					<dim>28</dim>
					<dim>28</dim>
				</port>
			</input>
			<output>
				<port id="2" precision="FP32" names="StatefulPartitionedCall/model/block_4_add/add:0">
					<dim>1</dim>
					<dim>32</dim>
					<dim>28</dim>
					<dim>28</dim>
				</port>
			</output>
		</layer>
		<layer id="85" name="StatefulPartitionedCall/model/block_5_expand_BN/FusedBatchNormV3/mean/Fused_Mul__copy" type="Const" version="opset1">
			<data element_type="f32" shape="192, 32, 1, 1" offset="157276" size="24576"/>
			<output>
				<port id="0" precision="FP32" names="StatefulPartitionedCall/model/block_5_expand/Conv2D/ReadVariableOp:0">
					<dim>192</dim>
					<dim>32</dim>
					<dim>1</dim>
					<dim>1</dim>
				</port>
			</output>
		</layer>
		<layer id="86" name="StatefulPartitionedCall/model/block_5_expand/Conv2D" type="Convolution" version="opset1">
			<data strides="1, 1" dilations="1, 1" pads_begin="0, 0" pads_end="0, 0" auto_pad="same_upper"/>
			<input>
				<port id="0" precision="FP32">
					<dim>1</dim>
					<dim>32</dim>
					<dim>28</dim>
					<dim>28</dim>
				</port>
				<port id="1" precision="FP32">
					<dim>192</dim>
					<dim>32</dim>
					<dim>1</dim>
					<dim>1</dim>
				</port>
			</input>
			<output>
				<port id="2" precision="FP32">
					<dim>1</dim>
					<dim>192</dim>
					<dim>28</dim>
					<dim>28</dim>
				</port>
			</output>
		</layer>
		<layer id="87" name="data_add_1225312258" type="Const" version="opset1">
			<data element_type="f32" shape="1, 192, 1, 1" offset="181852" size="768"/>
			<output>
				<port id="0" precision="FP32">
					<dim>1</dim>
					<dim>192</dim>
					<dim>1</dim>
					<dim>1</dim>
				</port>
			</output>
		</layer>
		<layer id="88" name="StatefulPartitionedCall/model/block_5_expand_BN/FusedBatchNormV3/variance/Fused_Add_" type="Add" version="opset1">
			<data auto_broadcast="numpy"/>
			<input>
				<port id="0" precision="FP32">
					<dim>1</dim>
					<dim>192</dim>
					<dim>28</dim>
					<dim>28</dim>
				</port>
				<port id="1" precision="FP32">
					<dim>1</dim>
					<dim>192</dim>
					<dim>1</dim>
					<dim>1</dim>
				</port>
			</input>
			<output>
				<port id="2" precision="FP32" names="StatefulPartitionedCall/model/block_5_expand_BN/FusedBatchNormV3:0">
					<dim>1</dim>
					<dim>192</dim>
					<dim>28</dim>
					<dim>28</dim>
				</port>
			</output>
		</layer>
		<layer id="89" name="StatefulPartitionedCall/model/block_5_expand_relu/Relu6" type="Clamp" version="opset1">
			<data min="0" max="6"/>
			<input>
				<port id="0" precision="FP32">
					<dim>1</dim>
					<dim>192</dim>
					<dim>28</dim>
					<dim>28</dim>
				</port>
			</input>
			<output>
				<port id="1" precision="FP32" names="StatefulPartitionedCall/model/block_5_expand_relu/Relu6:0">
					<dim>1</dim>
					<dim>192</dim>
					<dim>28</dim>
					<dim>28</dim>
				</port>
			</output>
		</layer>
		<layer id="90" name="StatefulPartitionedCall/model/block_5_depthwise_BN/FusedBatchNormV3/mean/Fused_Mul__copy" type="Const" version="opset1">
			<data element_type="f32" shape="192, 1, 1, 3, 3" offset="182620" size="6912"/>
			<output>
				<port id="0" precision="FP32" names="StatefulPartitionedCall/model/block_5_depthwise/depthwise/ReadVariableOp:0">
					<dim>192</dim>
					<dim>1</dim>
					<dim>1</dim>
					<dim>3</dim>
					<dim>3</dim>
				</port>
			</output>
		</layer>
		<layer id="91" name="StatefulPartitionedCall/model/block_5_depthwise/depthwise" type="GroupConvolution" version="opset1">
			<data strides="1, 1" pads_begin="1, 1" pads_end="1, 1" dilations="1, 1" auto_pad="same_upper"/>
			<input>
				<port id="0" precision="FP32">
					<dim>1</dim>
					<dim>192</dim>
					<dim>28</dim>
					<dim>28</dim>
				</port>
				<port id="1" precision="FP32">
					<dim>192</dim>
					<dim>1</dim>
					<dim>1</dim>
					<dim>3</dim>
					<dim>3</dim>
				</port>
			</input>
			<output>
				<port id="2" precision="FP32">
					<dim>1</dim>
					<dim>192</dim>
					<dim>28</dim>
					<dim>28</dim>
				</port>
			</output>
		</layer>
		<layer id="92" name="data_add_1226112266" type="Const" version="opset1">
			<data element_type="f32" shape="1, 192, 1, 1" offset="189532" size="768"/>
			<output>
				<port id="0" precision="FP32">
					<dim>1</dim>
					<dim>192</dim>
					<dim>1</dim>
					<dim>1</dim>
				</port>
			</output>
		</layer>
		<layer id="93" name="StatefulPartitionedCall/model/block_5_depthwise_BN/FusedBatchNormV3/variance/Fused_Add_" type="Add" version="opset1">
			<data auto_broadcast="numpy"/>
			<input>
				<port id="0" precision="FP32">
					<dim>1</dim>
					<dim>192</dim>
					<dim>28</dim>
					<dim>28</dim>
				</port>
				<port id="1" precision="FP32">
					<dim>1</dim>
					<dim>192</dim>
					<dim>1</dim>
					<dim>1</dim>
				</port>
			</input>
			<output>
				<port id="2" precision="FP32" names="StatefulPartitionedCall/model/block_5_depthwise_BN/FusedBatchNormV3:0">
					<dim>1</dim>
					<dim>192</dim>
					<dim>28</dim>
					<dim>28</dim>
				</port>
			</output>
		</layer>
		<layer id="94" name="StatefulPartitionedCall/model/block_5_depthwise_relu/Relu6" type="Clamp" version="opset1">
			<data min="0" max="6"/>
			<input>
				<port id="0" precision="FP32">
					<dim>1</dim>
					<dim>192</dim>
					<dim>28</dim>
					<dim>28</dim>
				</port>
			</input>
			<output>
				<port id="1" precision="FP32" names="StatefulPartitionedCall/model/block_5_depthwise_relu/Relu6:0">
					<dim>1</dim>
					<dim>192</dim>
					<dim>28</dim>
					<dim>28</dim>
				</port>
			</output>
		</layer>
		<layer id="95" name="StatefulPartitionedCall/model/block_5_project_BN/FusedBatchNormV3/mean/Fused_Mul__copy" type="Const" version="opset1">
			<data element_type="f32" shape="32, 192, 1, 1" offset="190300" size="24576"/>
			<output>
				<port id="0" precision="FP32" names="StatefulPartitionedCall/model/block_5_project/Conv2D/ReadVariableOp:0">
					<dim>32</dim>
					<dim>192</dim>
					<dim>1</dim>
					<dim>1</dim>
				</port>
			</output>
		</layer>
		<layer id="96" name="StatefulPartitionedCall/model/block_5_project/Conv2D" type="Convolution" version="opset1">
			<data strides="1, 1" dilations="1, 1" pads_begin="0, 0" pads_end="0, 0" auto_pad="same_upper"/>
			<input>
				<port id="0" precision="FP32">
					<dim>1</dim>
					<dim>192</dim>
					<dim>28</dim>
					<dim>28</dim>
				</port>
				<port id="1" precision="FP32">
					<dim>32</dim>
					<dim>192</dim>
					<dim>1</dim>
					<dim>1</dim>
				</port>
			</input>
			<output>
				<port id="2" precision="FP32">
					<dim>1</dim>
					<dim>32</dim>
					<dim>28</dim>
					<dim>28</dim>
				</port>
			</output>
		</layer>
		<layer id="97" name="data_add_1226912274" type="Const" version="opset1">
			<data element_type="f32" shape="1, 32, 1, 1" offset="214876" size="128"/>
			<output>
				<port id="0" precision="FP32">
					<dim>1</dim>
					<dim>32</dim>
					<dim>1</dim>
					<dim>1</dim>
				</port>
			</output>
		</layer>
		<layer id="98" name="StatefulPartitionedCall/model/block_5_project_BN/FusedBatchNormV3/variance/Fused_Add_" type="Add" version="opset1">
			<data auto_broadcast="numpy"/>
			<input>
				<port id="0" precision="FP32">
					<dim>1</dim>
					<dim>32</dim>
					<dim>28</dim>
					<dim>28</dim>
				</port>
				<port id="1" precision="FP32">
					<dim>1</dim>
					<dim>32</dim>
					<dim>1</dim>
					<dim>1</dim>
				</port>
			</input>
			<output>
				<port id="2" precision="FP32" names="StatefulPartitionedCall/model/block_5_project_BN/FusedBatchNormV3:0">
					<dim>1</dim>
					<dim>32</dim>
					<dim>28</dim>
					<dim>28</dim>
				</port>
			</output>
		</layer>
		<layer id="99" name="StatefulPartitionedCall/model/block_5_add/add" type="Add" version="opset1">
			<data auto_broadcast="numpy"/>
			<input>
				<port id="0" precision="FP32">
					<dim>1</dim>
					<dim>32</dim>
					<dim>28</dim>
					<dim>28</dim>
				</port>
				<port id="1" precision="FP32">
					<dim>1</dim>
					<dim>32</dim>
					<dim>28</dim>
					<dim>28</dim>
				</port>
			</input>
			<output>
				<port id="2" precision="FP32" names="StatefulPartitionedCall/model/block_5_add/add:0">
					<dim>1</dim>
					<dim>32</dim>
					<dim>28</dim>
					<dim>28</dim>
				</port>
			</output>
		</layer>
		<layer id="100" name="StatefulPartitionedCall/model/block_6_expand_BN/FusedBatchNormV3/mean/Fused_Mul__copy" type="Const" version="opset1">
			<data element_type="f32" shape="192, 32, 1, 1" offset="215004" size="24576"/>
			<output>
				<port id="0" precision="FP32" names="StatefulPartitionedCall/model/block_6_expand/Conv2D/ReadVariableOp:0">
					<dim>192</dim>
					<dim>32</dim>
					<dim>1</dim>
					<dim>1</dim>
				</port>
			</output>
		</layer>
		<layer id="101" name="StatefulPartitionedCall/model/block_6_expand/Conv2D" type="Convolution" version="opset1">
			<data strides="1, 1" dilations="1, 1" pads_begin="0, 0" pads_end="0, 0" auto_pad="same_upper"/>
			<input>
				<port id="0" precision="FP32">
					<dim>1</dim>
					<dim>32</dim>
					<dim>28</dim>
					<dim>28</dim>
				</port>
				<port id="1" precision="FP32">
					<dim>192</dim>
					<dim>32</dim>
					<dim>1</dim>
					<dim>1</dim>
				</port>
			</input>
			<output>
				<port id="2" precision="FP32">
					<dim>1</dim>
					<dim>192</dim>
					<dim>28</dim>
					<dim>28</dim>
				</port>
			</output>
		</layer>
		<layer id="102" name="data_add_1227712282" type="Const" version="opset1">
			<data element_type="f32" shape="1, 192, 1, 1" offset="239580" size="768"/>
			<output>
				<port id="0" precision="FP32">
					<dim>1</dim>
					<dim>192</dim>
					<dim>1</dim>
					<dim>1</dim>
				</port>
			</output>
		</layer>
		<layer id="103" name="StatefulPartitionedCall/model/block_6_expand_BN/FusedBatchNormV3/variance/Fused_Add_" type="Add" version="opset1">
			<data auto_broadcast="numpy"/>
			<input>
				<port id="0" precision="FP32">
					<dim>1</dim>
					<dim>192</dim>
					<dim>28</dim>
					<dim>28</dim>
				</port>
				<port id="1" precision="FP32">
					<dim>1</dim>
					<dim>192</dim>
					<dim>1</dim>
					<dim>1</dim>
				</port>
			</input>
			<output>
				<port id="2" precision="FP32" names="StatefulPartitionedCall/model/block_6_expand_BN/FusedBatchNormV3:0">
					<dim>1</dim>
					<dim>192</dim>
					<dim>28</dim>
					<dim>28</dim>
				</port>
			</output>
		</layer>
		<layer id="104" name="StatefulPartitionedCall/model/block_6_expand_relu/Relu6" type="Clamp" version="opset1">
			<data min="0" max="6"/>
			<input>
				<port id="0" precision="FP32">
					<dim>1</dim>
					<dim>192</dim>
					<dim>28</dim>
					<dim>28</dim>
				</port>
			</input>
			<output>
				<port id="1" precision="FP32" names="StatefulPartitionedCall/model/block_6_expand_relu/Relu6:0">
					<dim>1</dim>
					<dim>192</dim>
					<dim>28</dim>
					<dim>28</dim>
				</port>
			</output>
		</layer>
		<layer id="105" name="1622521572" type="Const" version="opset1">
			<data element_type="i64" shape="4" offset="13528" size="32"/>
			<output>
				<port id="0" precision="I64">
					<dim>4</dim>
				</port>
			</output>
		</layer>
		<layer id="106" name="1623121770" type="Const" version="opset1">
			<data element_type="i64" shape="4" offset="13560" size="32"/>
			<output>
				<port id="0" precision="I64">
					<dim>4</dim>
				</port>
			</output>
		</layer>
		<layer id="107" name="Constant_213" type="Const" version="opset1">
			<data element_type="f32" shape="" offset="13592" size="4"/>
			<output>
				<port id="0" precision="FP32"/>
			</output>
		</layer>
		<layer id="108" name="StatefulPartitionedCall/model/block_6_pad/Pad" type="Pad" version="opset1">
			<data pad_mode="constant"/>
			<input>
				<port id="0" precision="FP32">
					<dim>1</dim>
					<dim>192</dim>
					<dim>28</dim>
					<dim>28</dim>
				</port>
				<port id="1" precision="I64">
					<dim>4</dim>
				</port>
				<port id="2" precision="I64">
					<dim>4</dim>
				</port>
				<port id="3" precision="FP32"/>
			</input>
			<output>
				<port id="4" precision="FP32" names="StatefulPartitionedCall/model/block_6_pad/Pad:0">
					<dim>1</dim>
					<dim>192</dim>
					<dim>29</dim>
					<dim>29</dim>
				</port>
			</output>
		</layer>
		<layer id="109" name="StatefulPartitionedCall/model/block_6_depthwise_BN/FusedBatchNormV3/mean/Fused_Mul__copy" type="Const" version="opset1">
			<data element_type="f32" shape="192, 1, 1, 3, 3" offset="240348" size="6912"/>
			<output>
				<port id="0" precision="FP32" names="StatefulPartitionedCall/model/block_6_depthwise/depthwise/ReadVariableOp:0">
					<dim>192</dim>
					<dim>1</dim>
					<dim>1</dim>
					<dim>3</dim>
					<dim>3</dim>
				</port>
			</output>
		</layer>
		<layer id="110" name="StatefulPartitionedCall/model/block_6_depthwise/depthwise" type="GroupConvolution" version="opset1">
			<data strides="2, 2" pads_begin="0, 0" pads_end="0, 0" dilations="1, 1" auto_pad="valid"/>
			<input>
				<port id="0" precision="FP32">
					<dim>1</dim>
					<dim>192</dim>
					<dim>29</dim>
					<dim>29</dim>
				</port>
				<port id="1" precision="FP32">
					<dim>192</dim>
					<dim>1</dim>
					<dim>1</dim>
					<dim>3</dim>
					<dim>3</dim>
				</port>
			</input>
			<output>
				<port id="2" precision="FP32">
					<dim>1</dim>
					<dim>192</dim>
					<dim>14</dim>
					<dim>14</dim>
				</port>
			</output>
		</layer>
		<layer id="111" name="data_add_1228512290" type="Const" version="opset1">
			<data element_type="f32" shape="1, 192, 1, 1" offset="247260" size="768"/>
			<output>
				<port id="0" precision="FP32">
					<dim>1</dim>
					<dim>192</dim>
					<dim>1</dim>
					<dim>1</dim>
				</port>
			</output>
		</layer>
		<layer id="112" name="StatefulPartitionedCall/model/block_6_depthwise_BN/FusedBatchNormV3/variance/Fused_Add_" type="Add" version="opset1">
			<data auto_broadcast="numpy"/>
			<input>
				<port id="0" precision="FP32">
					<dim>1</dim>
					<dim>192</dim>
					<dim>14</dim>
					<dim>14</dim>
				</port>
				<port id="1" precision="FP32">
					<dim>1</dim>
					<dim>192</dim>
					<dim>1</dim>
					<dim>1</dim>
				</port>
			</input>
			<output>
				<port id="2" precision="FP32" names="StatefulPartitionedCall/model/block_6_depthwise_BN/FusedBatchNormV3:0">
					<dim>1</dim>
					<dim>192</dim>
					<dim>14</dim>
					<dim>14</dim>
				</port>
			</output>
		</layer>
		<layer id="113" name="StatefulPartitionedCall/model/block_6_depthwise_relu/Relu6" type="Clamp" version="opset1">
			<data min="0" max="6"/>
			<input>
				<port id="0" precision="FP32">
					<dim>1</dim>
					<dim>192</dim>
					<dim>14</dim>
					<dim>14</dim>
				</port>
			</input>
			<output>
				<port id="1" precision="FP32" names="StatefulPartitionedCall/model/block_6_depthwise_relu/Relu6:0">
					<dim>1</dim>
					<dim>192</dim>
					<dim>14</dim>
					<dim>14</dim>
				</port>
			</output>
		</layer>
		<layer id="114" name="StatefulPartitionedCall/model/block_6_project_BN/FusedBatchNormV3/mean/Fused_Mul__copy" type="Const" version="opset1">
			<data element_type="f32" shape="64, 192, 1, 1" offset="248028" size="49152"/>
			<output>
				<port id="0" precision="FP32" names="StatefulPartitionedCall/model/block_6_project/Conv2D/ReadVariableOp:0">
					<dim>64</dim>
					<dim>192</dim>
					<dim>1</dim>
					<dim>1</dim>
				</port>
			</output>
		</layer>
		<layer id="115" name="StatefulPartitionedCall/model/block_6_project/Conv2D" type="Convolution" version="opset1">
			<data strides="1, 1" dilations="1, 1" pads_begin="0, 0" pads_end="0, 0" auto_pad="same_upper"/>
			<input>
				<port id="0" precision="FP32">
					<dim>1</dim>
					<dim>192</dim>
					<dim>14</dim>
					<dim>14</dim>
				</port>
				<port id="1" precision="FP32">
					<dim>64</dim>
					<dim>192</dim>
					<dim>1</dim>
					<dim>1</dim>
				</port>
			</input>
			<output>
				<port id="2" precision="FP32">
					<dim>1</dim>
					<dim>64</dim>
					<dim>14</dim>
					<dim>14</dim>
				</port>
			</output>
		</layer>
		<layer id="116" name="data_add_1229312298" type="Const" version="opset1">
			<data element_type="f32" shape="1, 64, 1, 1" offset="297180" size="256"/>
			<output>
				<port id="0" precision="FP32">
					<dim>1</dim>
					<dim>64</dim>
					<dim>1</dim>
					<dim>1</dim>
				</port>
			</output>
		</layer>
		<layer id="117" name="StatefulPartitionedCall/model/block_6_project_BN/FusedBatchNormV3/variance/Fused_Add_" type="Add" version="opset1">
			<data auto_broadcast="numpy"/>
			<input>
				<port id="0" precision="FP32">
					<dim>1</dim>
					<dim>64</dim>
					<dim>14</dim>
					<dim>14</dim>
				</port>
				<port id="1" precision="FP32">
					<dim>1</dim>
					<dim>64</dim>
					<dim>1</dim>
					<dim>1</dim>
				</port>
			</input>
			<output>
				<port id="2" precision="FP32" names="StatefulPartitionedCall/model/block_6_project_BN/FusedBatchNormV3:0">
					<dim>1</dim>
					<dim>64</dim>
					<dim>14</dim>
					<dim>14</dim>
				</port>
			</output>
		</layer>
		<layer id="118" name="StatefulPartitionedCall/model/block_7_expand_BN/FusedBatchNormV3/mean/Fused_Mul__copy" type="Const" version="opset1">
			<data element_type="f32" shape="384, 64, 1, 1" offset="297436" size="98304"/>
			<output>
				<port id="0" precision="FP32" names="StatefulPartitionedCall/model/block_7_expand/Conv2D/ReadVariableOp:0">
					<dim>384</dim>
					<dim>64</dim>
					<dim>1</dim>
					<dim>1</dim>
				</port>
			</output>
		</layer>
		<layer id="119" name="StatefulPartitionedCall/model/block_7_expand/Conv2D" type="Convolution" version="opset1">
			<data strides="1, 1" dilations="1, 1" pads_begin="0, 0" pads_end="0, 0" auto_pad="same_upper"/>
			<input>
				<port id="0" precision="FP32">
					<dim>1</dim>
					<dim>64</dim>
					<dim>14</dim>
					<dim>14</dim>
				</port>
				<port id="1" precision="FP32">
					<dim>384</dim>
					<dim>64</dim>
					<dim>1</dim>
					<dim>1</dim>
				</port>
			</input>
			<output>
				<port id="2" precision="FP32">
					<dim>1</dim>
					<dim>384</dim>
					<dim>14</dim>
					<dim>14</dim>
				</port>
			</output>
		</layer>
		<layer id="120" name="data_add_1230112306" type="Const" version="opset1">
			<data element_type="f32" shape="1, 384, 1, 1" offset="395740" size="1536"/>
			<output>
				<port id="0" precision="FP32">
					<dim>1</dim>
					<dim>384</dim>
					<dim>1</dim>
					<dim>1</dim>
				</port>
			</output>
		</layer>
		<layer id="121" name="StatefulPartitionedCall/model/block_7_expand_BN/FusedBatchNormV3/variance/Fused_Add_" type="Add" version="opset1">
			<data auto_broadcast="numpy"/>
			<input>
				<port id="0" precision="FP32">
					<dim>1</dim>
					<dim>384</dim>
					<dim>14</dim>
					<dim>14</dim>
				</port>
				<port id="1" precision="FP32">
					<dim>1</dim>
					<dim>384</dim>
					<dim>1</dim>
					<dim>1</dim>
				</port>
			</input>
			<output>
				<port id="2" precision="FP32" names="StatefulPartitionedCall/model/block_7_expand_BN/FusedBatchNormV3:0">
					<dim>1</dim>
					<dim>384</dim>
					<dim>14</dim>
					<dim>14</dim>
				</port>
			</output>
		</layer>
		<layer id="122" name="StatefulPartitionedCall/model/block_7_expand_relu/Relu6" type="Clamp" version="opset1">
			<data min="0" max="6"/>
			<input>
				<port id="0" precision="FP32">
					<dim>1</dim>
					<dim>384</dim>
					<dim>14</dim>
					<dim>14</dim>
				</port>
			</input>
			<output>
				<port id="1" precision="FP32" names="StatefulPartitionedCall/model/block_7_expand_relu/Relu6:0">
					<dim>1</dim>
					<dim>384</dim>
					<dim>14</dim>
					<dim>14</dim>
				</port>
			</output>
		</layer>
		<layer id="123" name="StatefulPartitionedCall/model/block_7_depthwise_BN/FusedBatchNormV3/mean/Fused_Mul__copy" type="Const" version="opset1">
			<data element_type="f32" shape="384, 1, 1, 3, 3" offset="397276" size="13824"/>
			<output>
				<port id="0" precision="FP32" names="StatefulPartitionedCall/model/block_7_depthwise/depthwise/ReadVariableOp:0">
					<dim>384</dim>
					<dim>1</dim>
					<dim>1</dim>
					<dim>3</dim>
					<dim>3</dim>
				</port>
			</output>
		</layer>
		<layer id="124" name="StatefulPartitionedCall/model/block_7_depthwise/depthwise" type="GroupConvolution" version="opset1">
			<data strides="1, 1" pads_begin="1, 1" pads_end="1, 1" dilations="1, 1" auto_pad="same_upper"/>
			<input>
				<port id="0" precision="FP32">
					<dim>1</dim>
					<dim>384</dim>
					<dim>14</dim>
					<dim>14</dim>
				</port>
				<port id="1" precision="FP32">
					<dim>384</dim>
					<dim>1</dim>
					<dim>1</dim>
					<dim>3</dim>
					<dim>3</dim>
				</port>
			</input>
			<output>
				<port id="2" precision="FP32">
					<dim>1</dim>
					<dim>384</dim>
					<dim>14</dim>
					<dim>14</dim>
				</port>
			</output>
		</layer>
		<layer id="125" name="data_add_1230912314" type="Const" version="opset1">
			<data element_type="f32" shape="1, 384, 1, 1" offset="411100" size="1536"/>
			<output>
				<port id="0" precision="FP32">
					<dim>1</dim>
					<dim>384</dim>
					<dim>1</dim>
					<dim>1</dim>
				</port>
			</output>
		</layer>
		<layer id="126" name="StatefulPartitionedCall/model/block_7_depthwise_BN/FusedBatchNormV3/variance/Fused_Add_" type="Add" version="opset1">
			<data auto_broadcast="numpy"/>
			<input>
				<port id="0" precision="FP32">
					<dim>1</dim>
					<dim>384</dim>
					<dim>14</dim>
					<dim>14</dim>
				</port>
				<port id="1" precision="FP32">
					<dim>1</dim>
					<dim>384</dim>
					<dim>1</dim>
					<dim>1</dim>
				</port>
			</input>
			<output>
				<port id="2" precision="FP32" names="StatefulPartitionedCall/model/block_7_depthwise_BN/FusedBatchNormV3:0">
					<dim>1</dim>
					<dim>384</dim>
					<dim>14</dim>
					<dim>14</dim>
				</port>
			</output>
		</layer>
		<layer id="127" name="StatefulPartitionedCall/model/block_7_depthwise_relu/Relu6" type="Clamp" version="opset1">
			<data min="0" max="6"/>
			<input>
				<port id="0" precision="FP32">
					<dim>1</dim>
					<dim>384</dim>
					<dim>14</dim>
					<dim>14</dim>
				</port>
			</input>
			<output>
				<port id="1" precision="FP32" names="StatefulPartitionedCall/model/block_7_depthwise_relu/Relu6:0">
					<dim>1</dim>
					<dim>384</dim>
					<dim>14</dim>
					<dim>14</dim>
				</port>
			</output>
		</layer>
		<layer id="128" name="StatefulPartitionedCall/model/block_7_project_BN/FusedBatchNormV3/mean/Fused_Mul__copy" type="Const" version="opset1">
			<data element_type="f32" shape="64, 384, 1, 1" offset="412636" size="98304"/>
			<output>
				<port id="0" precision="FP32" names="StatefulPartitionedCall/model/block_7_project/Conv2D/ReadVariableOp:0">
					<dim>64</dim>
					<dim>384</dim>
					<dim>1</dim>
					<dim>1</dim>
				</port>
			</output>
		</layer>
		<layer id="129" name="StatefulPartitionedCall/model/block_7_project/Conv2D" type="Convolution" version="opset1">
			<data strides="1, 1" dilations="1, 1" pads_begin="0, 0" pads_end="0, 0" auto_pad="same_upper"/>
			<input>
				<port id="0" precision="FP32">
					<dim>1</dim>
					<dim>384</dim>
					<dim>14</dim>
					<dim>14</dim>
				</port>
				<port id="1" precision="FP32">
					<dim>64</dim>
					<dim>384</dim>
					<dim>1</dim>
					<dim>1</dim>
				</port>
			</input>
			<output>
				<port id="2" precision="FP32">
					<dim>1</dim>
					<dim>64</dim>
					<dim>14</dim>
					<dim>14</dim>
				</port>
			</output>
		</layer>
		<layer id="130" name="data_add_1231712322" type="Const" version="opset1">
			<data element_type="f32" shape="1, 64, 1, 1" offset="510940" size="256"/>
			<output>
				<port id="0" precision="FP32">
					<dim>1</dim>
					<dim>64</dim>
					<dim>1</dim>
					<dim>1</dim>
				</port>
			</output>
		</layer>
		<layer id="131" name="StatefulPartitionedCall/model/block_7_project_BN/FusedBatchNormV3/variance/Fused_Add_" type="Add" version="opset1">
			<data auto_broadcast="numpy"/>
			<input>
				<port id="0" precision="FP32">
					<dim>1</dim>
					<dim>64</dim>
					<dim>14</dim>
					<dim>14</dim>
				</port>
				<port id="1" precision="FP32">
					<dim>1</dim>
					<dim>64</dim>
					<dim>1</dim>
					<dim>1</dim>
				</port>
			</input>
			<output>
				<port id="2" precision="FP32" names="StatefulPartitionedCall/model/block_7_project_BN/FusedBatchNormV3:0">
					<dim>1</dim>
					<dim>64</dim>
					<dim>14</dim>
					<dim>14</dim>
				</port>
			</output>
		</layer>
		<layer id="132" name="StatefulPartitionedCall/model/block_7_add/add" type="Add" version="opset1">
			<data auto_broadcast="numpy"/>
			<input>
				<port id="0" precision="FP32">
					<dim>1</dim>
					<dim>64</dim>
					<dim>14</dim>
					<dim>14</dim>
				</port>
				<port id="1" precision="FP32">
					<dim>1</dim>
					<dim>64</dim>
					<dim>14</dim>
					<dim>14</dim>
				</port>
			</input>
			<output>
				<port id="2" precision="FP32" names="StatefulPartitionedCall/model/block_7_add/add:0">
					<dim>1</dim>
					<dim>64</dim>
					<dim>14</dim>
					<dim>14</dim>
				</port>
			</output>
		</layer>
		<layer id="133" name="StatefulPartitionedCall/model/block_8_expand_BN/FusedBatchNormV3/mean/Fused_Mul__copy" type="Const" version="opset1">
			<data element_type="f32" shape="384, 64, 1, 1" offset="511196" size="98304"/>
			<output>
				<port id="0" precision="FP32" names="StatefulPartitionedCall/model/block_8_expand/Conv2D/ReadVariableOp:0">
					<dim>384</dim>
					<dim>64</dim>
					<dim>1</dim>
					<dim>1</dim>
				</port>
			</output>
		</layer>
		<layer id="134" name="StatefulPartitionedCall/model/block_8_expand/Conv2D" type="Convolution" version="opset1">
			<data strides="1, 1" dilations="1, 1" pads_begin="0, 0" pads_end="0, 0" auto_pad="same_upper"/>
			<input>
				<port id="0" precision="FP32">
					<dim>1</dim>
					<dim>64</dim>
					<dim>14</dim>
					<dim>14</dim>
				</port>
				<port id="1" precision="FP32">
					<dim>384</dim>
					<dim>64</dim>
					<dim>1</dim>
					<dim>1</dim>
				</port>
			</input>
			<output>
				<port id="2" precision="FP32">
					<dim>1</dim>
					<dim>384</dim>
					<dim>14</dim>
					<dim>14</dim>
				</port>
			</output>
		</layer>
		<layer id="135" name="data_add_1232512330" type="Const" version="opset1">
			<data element_type="f32" shape="1, 384, 1, 1" offset="609500" size="1536"/>
			<output>
				<port id="0" precision="FP32">
					<dim>1</dim>
					<dim>384</dim>
					<dim>1</dim>
					<dim>1</dim>
				</port>
			</output>
		</layer>
		<layer id="136" name="StatefulPartitionedCall/model/block_8_expand_BN/FusedBatchNormV3/variance/Fused_Add_" type="Add" version="opset1">
			<data auto_broadcast="numpy"/>
			<input>
				<port id="0" precision="FP32">
					<dim>1</dim>
					<dim>384</dim>
					<dim>14</dim>
					<dim>14</dim>
				</port>
				<port id="1" precision="FP32">
					<dim>1</dim>
					<dim>384</dim>
					<dim>1</dim>
					<dim>1</dim>
				</port>
			</input>
			<output>
				<port id="2" precision="FP32" names="StatefulPartitionedCall/model/block_8_expand_BN/FusedBatchNormV3:0">
					<dim>1</dim>
					<dim>384</dim>
					<dim>14</dim>
					<dim>14</dim>
				</port>
			</output>
		</layer>
		<layer id="137" name="StatefulPartitionedCall/model/block_8_expand_relu/Relu6" type="Clamp" version="opset1">
			<data min="0" max="6"/>
			<input>
				<port id="0" precision="FP32">
					<dim>1</dim>
					<dim>384</dim>
					<dim>14</dim>
					<dim>14</dim>
				</port>
			</input>
			<output>
				<port id="1" precision="FP32" names="StatefulPartitionedCall/model/block_8_expand_relu/Relu6:0">
					<dim>1</dim>
					<dim>384</dim>
					<dim>14</dim>
					<dim>14</dim>
				</port>
			</output>
		</layer>
		<layer id="138" name="StatefulPartitionedCall/model/block_8_depthwise_BN/FusedBatchNormV3/mean/Fused_Mul__copy" type="Const" version="opset1">
			<data element_type="f32" shape="384, 1, 1, 3, 3" offset="611036" size="13824"/>
			<output>
				<port id="0" precision="FP32" names="StatefulPartitionedCall/model/block_8_depthwise/depthwise/ReadVariableOp:0">
					<dim>384</dim>
					<dim>1</dim>
					<dim>1</dim>
					<dim>3</dim>
					<dim>3</dim>
				</port>
			</output>
		</layer>
		<layer id="139" name="StatefulPartitionedCall/model/block_8_depthwise/depthwise" type="GroupConvolution" version="opset1">
			<data strides="1, 1" pads_begin="1, 1" pads_end="1, 1" dilations="1, 1" auto_pad="same_upper"/>
			<input>
				<port id="0" precision="FP32">
					<dim>1</dim>
					<dim>384</dim>
					<dim>14</dim>
					<dim>14</dim>
				</port>
				<port id="1" precision="FP32">
					<dim>384</dim>
					<dim>1</dim>
					<dim>1</dim>
					<dim>3</dim>
					<dim>3</dim>
				</port>
			</input>
			<output>
				<port id="2" precision="FP32">
					<dim>1</dim>
					<dim>384</dim>
					<dim>14</dim>
					<dim>14</dim>
				</port>
			</output>
		</layer>
		<layer id="140" name="data_add_1233312338" type="Const" version="opset1">
			<data element_type="f32" shape="1, 384, 1, 1" offset="624860" size="1536"/>
			<output>
				<port id="0" precision="FP32">
					<dim>1</dim>
					<dim>384</dim>
					<dim>1</dim>
					<dim>1</dim>
				</port>
			</output>
		</layer>
		<layer id="141" name="StatefulPartitionedCall/model/block_8_depthwise_BN/FusedBatchNormV3/variance/Fused_Add_" type="Add" version="opset1">
			<data auto_broadcast="numpy"/>
			<input>
				<port id="0" precision="FP32">
					<dim>1</dim>
					<dim>384</dim>
					<dim>14</dim>
					<dim>14</dim>
				</port>
				<port id="1" precision="FP32">
					<dim>1</dim>
					<dim>384</dim>
					<dim>1</dim>
					<dim>1</dim>
				</port>
			</input>
			<output>
				<port id="2" precision="FP32" names="StatefulPartitionedCall/model/block_8_depthwise_BN/FusedBatchNormV3:0">
					<dim>1</dim>
					<dim>384</dim>
					<dim>14</dim>
					<dim>14</dim>
				</port>
			</output>
		</layer>
		<layer id="142" name="StatefulPartitionedCall/model/block_8_depthwise_relu/Relu6" type="Clamp" version="opset1">
			<data min="0" max="6"/>
			<input>
				<port id="0" precision="FP32">
					<dim>1</dim>
					<dim>384</dim>
					<dim>14</dim>
					<dim>14</dim>
				</port>
			</input>
			<output>
				<port id="1" precision="FP32" names="StatefulPartitionedCall/model/block_8_depthwise_relu/Relu6:0">
					<dim>1</dim>
					<dim>384</dim>
					<dim>14</dim>
					<dim>14</dim>
				</port>
			</output>
		</layer>
		<layer id="143" name="StatefulPartitionedCall/model/block_8_project_BN/FusedBatchNormV3/mean/Fused_Mul__copy" type="Const" version="opset1">
			<data element_type="f32" shape="64, 384, 1, 1" offset="626396" size="98304"/>
			<output>
				<port id="0" precision="FP32" names="StatefulPartitionedCall/model/block_8_project/Conv2D/ReadVariableOp:0">
					<dim>64</dim>
					<dim>384</dim>
					<dim>1</dim>
					<dim>1</dim>
				</port>
			</output>
		</layer>
		<layer id="144" name="StatefulPartitionedCall/model/block_8_project/Conv2D" type="Convolution" version="opset1">
			<data strides="1, 1" dilations="1, 1" pads_begin="0, 0" pads_end="0, 0" auto_pad="same_upper"/>
			<input>
				<port id="0" precision="FP32">
					<dim>1</dim>
					<dim>384</dim>
					<dim>14</dim>
					<dim>14</dim>
				</port>
				<port id="1" precision="FP32">
					<dim>64</dim>
					<dim>384</dim>
					<dim>1</dim>
					<dim>1</dim>
				</port>
			</input>
			<output>
				<port id="2" precision="FP32">
					<dim>1</dim>
					<dim>64</dim>
					<dim>14</dim>
					<dim>14</dim>
				</port>
			</output>
		</layer>
		<layer id="145" name="data_add_1234112346" type="Const" version="opset1">
			<data element_type="f32" shape="1, 64, 1, 1" offset="724700" size="256"/>
			<output>
				<port id="0" precision="FP32">
					<dim>1</dim>
					<dim>64</dim>
					<dim>1</dim>
					<dim>1</dim>
				</port>
			</output>
		</layer>
		<layer id="146" name="StatefulPartitionedCall/model/block_8_project_BN/FusedBatchNormV3/variance/Fused_Add_" type="Add" version="opset1">
			<data auto_broadcast="numpy"/>
			<input>
				<port id="0" precision="FP32">
					<dim>1</dim>
					<dim>64</dim>
					<dim>14</dim>
					<dim>14</dim>
				</port>
				<port id="1" precision="FP32">
					<dim>1</dim>
					<dim>64</dim>
					<dim>1</dim>
					<dim>1</dim>
				</port>
			</input>
			<output>
				<port id="2" precision="FP32" names="StatefulPartitionedCall/model/block_8_project_BN/FusedBatchNormV3:0">
					<dim>1</dim>
					<dim>64</dim>
					<dim>14</dim>
					<dim>14</dim>
				</port>
			</output>
		</layer>
		<layer id="147" name="StatefulPartitionedCall/model/block_8_add/add" type="Add" version="opset1">
			<data auto_broadcast="numpy"/>
			<input>
				<port id="0" precision="FP32">
					<dim>1</dim>
					<dim>64</dim>
					<dim>14</dim>
					<dim>14</dim>
				</port>
				<port id="1" precision="FP32">
					<dim>1</dim>
					<dim>64</dim>
					<dim>14</dim>
					<dim>14</dim>
				</port>
			</input>
			<output>
				<port id="2" precision="FP32" names="StatefulPartitionedCall/model/block_8_add/add:0">
					<dim>1</dim>
					<dim>64</dim>
					<dim>14</dim>
					<dim>14</dim>
				</port>
			</output>
		</layer>
		<layer id="148" name="StatefulPartitionedCall/model/block_9_expand_BN/FusedBatchNormV3/mean/Fused_Mul__copy" type="Const" version="opset1">
			<data element_type="f32" shape="384, 64, 1, 1" offset="724956" size="98304"/>
			<output>
				<port id="0" precision="FP32" names="StatefulPartitionedCall/model/block_9_expand/Conv2D/ReadVariableOp:0">
					<dim>384</dim>
					<dim>64</dim>
					<dim>1</dim>
					<dim>1</dim>
				</port>
			</output>
		</layer>
		<layer id="149" name="StatefulPartitionedCall/model/block_9_expand/Conv2D" type="Convolution" version="opset1">
			<data strides="1, 1" dilations="1, 1" pads_begin="0, 0" pads_end="0, 0" auto_pad="same_upper"/>
			<input>
				<port id="0" precision="FP32">
					<dim>1</dim>
					<dim>64</dim>
					<dim>14</dim>
					<dim>14</dim>
				</port>
				<port id="1" precision="FP32">
					<dim>384</dim>
					<dim>64</dim>
					<dim>1</dim>
					<dim>1</dim>
				</port>
			</input>
			<output>
				<port id="2" precision="FP32">
					<dim>1</dim>
					<dim>384</dim>
					<dim>14</dim>
					<dim>14</dim>
				</port>
			</output>
		</layer>
		<layer id="150" name="data_add_1234912354" type="Const" version="opset1">
			<data element_type="f32" shape="1, 384, 1, 1" offset="823260" size="1536"/>
			<output>
				<port id="0" precision="FP32">
					<dim>1</dim>
					<dim>384</dim>
					<dim>1</dim>
					<dim>1</dim>
				</port>
			</output>
		</layer>
		<layer id="151" name="StatefulPartitionedCall/model/block_9_expand_BN/FusedBatchNormV3/variance/Fused_Add_" type="Add" version="opset1">
			<data auto_broadcast="numpy"/>
			<input>
				<port id="0" precision="FP32">
					<dim>1</dim>
					<dim>384</dim>
					<dim>14</dim>
					<dim>14</dim>
				</port>
				<port id="1" precision="FP32">
					<dim>1</dim>
					<dim>384</dim>
					<dim>1</dim>
					<dim>1</dim>
				</port>
			</input>
			<output>
				<port id="2" precision="FP32" names="StatefulPartitionedCall/model/block_9_expand_BN/FusedBatchNormV3:0">
					<dim>1</dim>
					<dim>384</dim>
					<dim>14</dim>
					<dim>14</dim>
				</port>
			</output>
		</layer>
		<layer id="152" name="StatefulPartitionedCall/model/block_9_expand_relu/Relu6" type="Clamp" version="opset1">
			<data min="0" max="6"/>
			<input>
				<port id="0" precision="FP32">
					<dim>1</dim>
					<dim>384</dim>
					<dim>14</dim>
					<dim>14</dim>
				</port>
			</input>
			<output>
				<port id="1" precision="FP32" names="StatefulPartitionedCall/model/block_9_expand_relu/Relu6:0">
					<dim>1</dim>
					<dim>384</dim>
					<dim>14</dim>
					<dim>14</dim>
				</port>
			</output>
		</layer>
		<layer id="153" name="StatefulPartitionedCall/model/block_9_depthwise_BN/FusedBatchNormV3/mean/Fused_Mul__copy" type="Const" version="opset1">
			<data element_type="f32" shape="384, 1, 1, 3, 3" offset="824796" size="13824"/>
			<output>
				<port id="0" precision="FP32" names="StatefulPartitionedCall/model/block_9_depthwise/depthwise/ReadVariableOp:0">
					<dim>384</dim>
					<dim>1</dim>
					<dim>1</dim>
					<dim>3</dim>
					<dim>3</dim>
				</port>
			</output>
		</layer>
		<layer id="154" name="StatefulPartitionedCall/model/block_9_depthwise/depthwise" type="GroupConvolution" version="opset1">
			<data strides="1, 1" pads_begin="1, 1" pads_end="1, 1" dilations="1, 1" auto_pad="same_upper"/>
			<input>
				<port id="0" precision="FP32">
					<dim>1</dim>
					<dim>384</dim>
					<dim>14</dim>
					<dim>14</dim>
				</port>
				<port id="1" precision="FP32">
					<dim>384</dim>
					<dim>1</dim>
					<dim>1</dim>
					<dim>3</dim>
					<dim>3</dim>
				</port>
			</input>
			<output>
				<port id="2" precision="FP32">
					<dim>1</dim>
					<dim>384</dim>
					<dim>14</dim>
					<dim>14</dim>
				</port>
			</output>
		</layer>
		<layer id="155" name="data_add_1235712362" type="Const" version="opset1">
			<data element_type="f32" shape="1, 384, 1, 1" offset="838620" size="1536"/>
			<output>
				<port id="0" precision="FP32">
					<dim>1</dim>
					<dim>384</dim>
					<dim>1</dim>
					<dim>1</dim>
				</port>
			</output>
		</layer>
		<layer id="156" name="StatefulPartitionedCall/model/block_9_depthwise_BN/FusedBatchNormV3/variance/Fused_Add_" type="Add" version="opset1">
			<data auto_broadcast="numpy"/>
			<input>
				<port id="0" precision="FP32">
					<dim>1</dim>
					<dim>384</dim>
					<dim>14</dim>
					<dim>14</dim>
				</port>
				<port id="1" precision="FP32">
					<dim>1</dim>
					<dim>384</dim>
					<dim>1</dim>
					<dim>1</dim>
				</port>
			</input>
			<output>
				<port id="2" precision="FP32" names="StatefulPartitionedCall/model/block_9_depthwise_BN/FusedBatchNormV3:0">
					<dim>1</dim>
					<dim>384</dim>
					<dim>14</dim>
					<dim>14</dim>
				</port>
			</output>
		</layer>
		<layer id="157" name="StatefulPartitionedCall/model/block_9_depthwise_relu/Relu6" type="Clamp" version="opset1">
			<data min="0" max="6"/>
			<input>
				<port id="0" precision="FP32">
					<dim>1</dim>
					<dim>384</dim>
					<dim>14</dim>
					<dim>14</dim>
				</port>
			</input>
			<output>
				<port id="1" precision="FP32" names="StatefulPartitionedCall/model/block_9_depthwise_relu/Relu6:0">
					<dim>1</dim>
					<dim>384</dim>
					<dim>14</dim>
					<dim>14</dim>
				</port>
			</output>
		</layer>
		<layer id="158" name="StatefulPartitionedCall/model/block_9_project_BN/FusedBatchNormV3/mean/Fused_Mul__copy" type="Const" version="opset1">
			<data element_type="f32" shape="64, 384, 1, 1" offset="840156" size="98304"/>
			<output>
				<port id="0" precision="FP32" names="StatefulPartitionedCall/model/block_9_project/Conv2D/ReadVariableOp:0">
					<dim>64</dim>
					<dim>384</dim>
					<dim>1</dim>
					<dim>1</dim>
				</port>
			</output>
		</layer>
		<layer id="159" name="StatefulPartitionedCall/model/block_9_project/Conv2D" type="Convolution" version="opset1">
			<data strides="1, 1" dilations="1, 1" pads_begin="0, 0" pads_end="0, 0" auto_pad="same_upper"/>
			<input>
				<port id="0" precision="FP32">
					<dim>1</dim>
					<dim>384</dim>
					<dim>14</dim>
					<dim>14</dim>
				</port>
				<port id="1" precision="FP32">
					<dim>64</dim>
					<dim>384</dim>
					<dim>1</dim>
					<dim>1</dim>
				</port>
			</input>
			<output>
				<port id="2" precision="FP32">
					<dim>1</dim>
					<dim>64</dim>
					<dim>14</dim>
					<dim>14</dim>
				</port>
			</output>
		</layer>
		<layer id="160" name="data_add_1236512370" type="Const" version="opset1">
			<data element_type="f32" shape="1, 64, 1, 1" offset="938460" size="256"/>
			<output>
				<port id="0" precision="FP32">
					<dim>1</dim>
					<dim>64</dim>
					<dim>1</dim>
					<dim>1</dim>
				</port>
			</output>
		</layer>
		<layer id="161" name="StatefulPartitionedCall/model/block_9_project_BN/FusedBatchNormV3/variance/Fused_Add_" type="Add" version="opset1">
			<data auto_broadcast="numpy"/>
			<input>
				<port id="0" precision="FP32">
					<dim>1</dim>
					<dim>64</dim>
					<dim>14</dim>
					<dim>14</dim>
				</port>
				<port id="1" precision="FP32">
					<dim>1</dim>
					<dim>64</dim>
					<dim>1</dim>
					<dim>1</dim>
				</port>
			</input>
			<output>
				<port id="2" precision="FP32" names="StatefulPartitionedCall/model/block_9_project_BN/FusedBatchNormV3:0">
					<dim>1</dim>
					<dim>64</dim>
					<dim>14</dim>
					<dim>14</dim>
				</port>
			</output>
		</layer>
		<layer id="162" name="StatefulPartitionedCall/model/block_9_add/add" type="Add" version="opset1">
			<data auto_broadcast="numpy"/>
			<input>
				<port id="0" precision="FP32">
					<dim>1</dim>
					<dim>64</dim>
					<dim>14</dim>
					<dim>14</dim>
				</port>
				<port id="1" precision="FP32">
					<dim>1</dim>
					<dim>64</dim>
					<dim>14</dim>
					<dim>14</dim>
				</port>
			</input>
			<output>
				<port id="2" precision="FP32" names="StatefulPartitionedCall/model/block_9_add/add:0">
					<dim>1</dim>
					<dim>64</dim>
					<dim>14</dim>
					<dim>14</dim>
				</port>
			</output>
		</layer>
		<layer id="163" name="StatefulPartitionedCall/model/block_10_expand_BN/FusedBatchNormV3/mean/Fused_Mul__copy" type="Const" version="opset1">
			<data element_type="f32" shape="384, 64, 1, 1" offset="938716" size="98304"/>
			<output>
				<port id="0" precision="FP32" names="StatefulPartitionedCall/model/block_10_expand/Conv2D/ReadVariableOp:0">
					<dim>384</dim>
					<dim>64</dim>
					<dim>1</dim>
					<dim>1</dim>
				</port>
			</output>
		</layer>
		<layer id="164" name="StatefulPartitionedCall/model/block_10_expand/Conv2D" type="Convolution" version="opset1">
			<data strides="1, 1" dilations="1, 1" pads_begin="0, 0" pads_end="0, 0" auto_pad="same_upper"/>
			<input>
				<port id="0" precision="FP32">
					<dim>1</dim>
					<dim>64</dim>
					<dim>14</dim>
					<dim>14</dim>
				</port>
				<port id="1" precision="FP32">
					<dim>384</dim>
					<dim>64</dim>
					<dim>1</dim>
					<dim>1</dim>
				</port>
			</input>
			<output>
				<port id="2" precision="FP32">
					<dim>1</dim>
					<dim>384</dim>
					<dim>14</dim>
					<dim>14</dim>
				</port>
			</output>
		</layer>
		<layer id="165" name="data_add_1237312378" type="Const" version="opset1">
			<data element_type="f32" shape="1, 384, 1, 1" offset="1037020" size="1536"/>
			<output>
				<port id="0" precision="FP32">
					<dim>1</dim>
					<dim>384</dim>
					<dim>1</dim>
					<dim>1</dim>
				</port>
			</output>
		</layer>
		<layer id="166" name="StatefulPartitionedCall/model/block_10_expand_BN/FusedBatchNormV3/variance/Fused_Add_" type="Add" version="opset1">
			<data auto_broadcast="numpy"/>
			<input>
				<port id="0" precision="FP32">
					<dim>1</dim>
					<dim>384</dim>
					<dim>14</dim>
					<dim>14</dim>
				</port>
				<port id="1" precision="FP32">
					<dim>1</dim>
					<dim>384</dim>
					<dim>1</dim>
					<dim>1</dim>
				</port>
			</input>
			<output>
				<port id="2" precision="FP32" names="StatefulPartitionedCall/model/block_10_expand_BN/FusedBatchNormV3:0">
					<dim>1</dim>
					<dim>384</dim>
					<dim>14</dim>
					<dim>14</dim>
				</port>
			</output>
		</layer>
		<layer id="167" name="StatefulPartitionedCall/model/block_10_expand_relu/Relu6" type="Clamp" version="opset1">
			<data min="0" max="6"/>
			<input>
				<port id="0" precision="FP32">
					<dim>1</dim>
					<dim>384</dim>
					<dim>14</dim>
					<dim>14</dim>
				</port>
			</input>
			<output>
				<port id="1" precision="FP32" names="StatefulPartitionedCall/model/block_10_expand_relu/Relu6:0">
					<dim>1</dim>
					<dim>384</dim>
					<dim>14</dim>
					<dim>14</dim>
				</port>
			</output>
		</layer>
		<layer id="168" name="StatefulPartitionedCall/model/block_10_depthwise_BN/FusedBatchNormV3/mean/Fused_Mul__copy" type="Const" version="opset1">
			<data element_type="f32" shape="384, 1, 1, 3, 3" offset="1038556" size="13824"/>
			<output>
				<port id="0" precision="FP32" names="StatefulPartitionedCall/model/block_10_depthwise/depthwise/ReadVariableOp:0">
					<dim>384</dim>
					<dim>1</dim>
					<dim>1</dim>
					<dim>3</dim>
					<dim>3</dim>
				</port>
			</output>
		</layer>
		<layer id="169" name="StatefulPartitionedCall/model/block_10_depthwise/depthwise" type="GroupConvolution" version="opset1">
			<data strides="1, 1" pads_begin="1, 1" pads_end="1, 1" dilations="1, 1" auto_pad="same_upper"/>
			<input>
				<port id="0" precision="FP32">
					<dim>1</dim>
					<dim>384</dim>
					<dim>14</dim>
					<dim>14</dim>
				</port>
				<port id="1" precision="FP32">
					<dim>384</dim>
					<dim>1</dim>
					<dim>1</dim>
					<dim>3</dim>
					<dim>3</dim>
				</port>
			</input>
			<output>
				<port id="2" precision="FP32">
					<dim>1</dim>
					<dim>384</dim>
					<dim>14</dim>
					<dim>14</dim>
				</port>
			</output>
		</layer>
		<layer id="170" name="data_add_1238112386" type="Const" version="opset1">
			<data element_type="f32" shape="1, 384, 1, 1" offset="1052380" size="1536"/>
			<output>
				<port id="0" precision="FP32">
					<dim>1</dim>
					<dim>384</dim>
					<dim>1</dim>
					<dim>1</dim>
				</port>
			</output>
		</layer>
		<layer id="171" name="StatefulPartitionedCall/model/block_10_depthwise_BN/FusedBatchNormV3/variance/Fused_Add_" type="Add" version="opset1">
			<data auto_broadcast="numpy"/>
			<input>
				<port id="0" precision="FP32">
					<dim>1</dim>
					<dim>384</dim>
					<dim>14</dim>
					<dim>14</dim>
				</port>
				<port id="1" precision="FP32">
					<dim>1</dim>
					<dim>384</dim>
					<dim>1</dim>
					<dim>1</dim>
				</port>
			</input>
			<output>
				<port id="2" precision="FP32" names="StatefulPartitionedCall/model/block_10_depthwise_BN/FusedBatchNormV3:0">
					<dim>1</dim>
					<dim>384</dim>
					<dim>14</dim>
					<dim>14</dim>
				</port>
			</output>
		</layer>
		<layer id="172" name="StatefulPartitionedCall/model/block_10_depthwise_relu/Relu6" type="Clamp" version="opset1">
			<data min="0" max="6"/>
			<input>
				<port id="0" precision="FP32">
					<dim>1</dim>
					<dim>384</dim>
					<dim>14</dim>
					<dim>14</dim>
				</port>
			</input>
			<output>
				<port id="1" precision="FP32" names="StatefulPartitionedCall/model/block_10_depthwise_relu/Relu6:0">
					<dim>1</dim>
					<dim>384</dim>
					<dim>14</dim>
					<dim>14</dim>
				</port>
			</output>
		</layer>
		<layer id="173" name="StatefulPartitionedCall/model/block_10_project_BN/FusedBatchNormV3/mean/Fused_Mul__copy" type="Const" version="opset1">
			<data element_type="f32" shape="96, 384, 1, 1" offset="1053916" size="147456"/>
			<output>
				<port id="0" precision="FP32" names="StatefulPartitionedCall/model/block_10_project/Conv2D/ReadVariableOp:0">
					<dim>96</dim>
					<dim>384</dim>
					<dim>1</dim>
					<dim>1</dim>
				</port>
			</output>
		</layer>
		<layer id="174" name="StatefulPartitionedCall/model/block_10_project/Conv2D" type="Convolution" version="opset1">
			<data strides="1, 1" dilations="1, 1" pads_begin="0, 0" pads_end="0, 0" auto_pad="same_upper"/>
			<input>
				<port id="0" precision="FP32">
					<dim>1</dim>
					<dim>384</dim>
					<dim>14</dim>
					<dim>14</dim>
				</port>
				<port id="1" precision="FP32">
					<dim>96</dim>
					<dim>384</dim>
					<dim>1</dim>
					<dim>1</dim>
				</port>
			</input>
			<output>
				<port id="2" precision="FP32">
					<dim>1</dim>
					<dim>96</dim>
					<dim>14</dim>
					<dim>14</dim>
				</port>
			</output>
		</layer>
		<layer id="175" name="data_add_1238912394" type="Const" version="opset1">
			<data element_type="f32" shape="1, 96, 1, 1" offset="1201372" size="384"/>
			<output>
				<port id="0" precision="FP32">
					<dim>1</dim>
					<dim>96</dim>
					<dim>1</dim>
					<dim>1</dim>
				</port>
			</output>
		</layer>
		<layer id="176" name="StatefulPartitionedCall/model/block_10_project_BN/FusedBatchNormV3/variance/Fused_Add_" type="Add" version="opset1">
			<data auto_broadcast="numpy"/>
			<input>
				<port id="0" precision="FP32">
					<dim>1</dim>
					<dim>96</dim>
					<dim>14</dim>
					<dim>14</dim>
				</port>
				<port id="1" precision="FP32">
					<dim>1</dim>
					<dim>96</dim>
					<dim>1</dim>
					<dim>1</dim>
				</port>
			</input>
			<output>
				<port id="2" precision="FP32" names="StatefulPartitionedCall/model/block_10_project_BN/FusedBatchNormV3:0">
					<dim>1</dim>
					<dim>96</dim>
					<dim>14</dim>
					<dim>14</dim>
				</port>
			</output>
		</layer>
		<layer id="177" name="StatefulPartitionedCall/model/block_11_expand_BN/FusedBatchNormV3/mean/Fused_Mul__copy" type="Const" version="opset1">
			<data element_type="f32" shape="576, 96, 1, 1" offset="1201756" size="221184"/>
			<output>
				<port id="0" precision="FP32" names="StatefulPartitionedCall/model/block_11_expand/Conv2D/ReadVariableOp:0">
					<dim>576</dim>
					<dim>96</dim>
					<dim>1</dim>
					<dim>1</dim>
				</port>
			</output>
		</layer>
		<layer id="178" name="StatefulPartitionedCall/model/block_11_expand/Conv2D" type="Convolution" version="opset1">
			<data strides="1, 1" dilations="1, 1" pads_begin="0, 0" pads_end="0, 0" auto_pad="same_upper"/>
			<input>
				<port id="0" precision="FP32">
					<dim>1</dim>
					<dim>96</dim>
					<dim>14</dim>
					<dim>14</dim>
				</port>
				<port id="1" precision="FP32">
					<dim>576</dim>
					<dim>96</dim>
					<dim>1</dim>
					<dim>1</dim>
				</port>
			</input>
			<output>
				<port id="2" precision="FP32">
					<dim>1</dim>
					<dim>576</dim>
					<dim>14</dim>
					<dim>14</dim>
				</port>
			</output>
		</layer>
		<layer id="179" name="data_add_1239712402" type="Const" version="opset1">
			<data element_type="f32" shape="1, 576, 1, 1" offset="1422940" size="2304"/>
			<output>
				<port id="0" precision="FP32">
					<dim>1</dim>
					<dim>576</dim>
					<dim>1</dim>
					<dim>1</dim>
				</port>
			</output>
		</layer>
		<layer id="180" name="StatefulPartitionedCall/model/block_11_expand_BN/FusedBatchNormV3/variance/Fused_Add_" type="Add" version="opset1">
			<data auto_broadcast="numpy"/>
			<input>
				<port id="0" precision="FP32">
					<dim>1</dim>
					<dim>576</dim>
					<dim>14</dim>
					<dim>14</dim>
				</port>
				<port id="1" precision="FP32">
					<dim>1</dim>
					<dim>576</dim>
					<dim>1</dim>
					<dim>1</dim>
				</port>
			</input>
			<output>
				<port id="2" precision="FP32" names="StatefulPartitionedCall/model/block_11_expand_BN/FusedBatchNormV3:0">
					<dim>1</dim>
					<dim>576</dim>
					<dim>14</dim>
					<dim>14</dim>
				</port>
			</output>
		</layer>
		<layer id="181" name="StatefulPartitionedCall/model/block_11_expand_relu/Relu6" type="Clamp" version="opset1">
			<data min="0" max="6"/>
			<input>
				<port id="0" precision="FP32">
					<dim>1</dim>
					<dim>576</dim>
					<dim>14</dim>
					<dim>14</dim>
				</port>
			</input>
			<output>
				<port id="1" precision="FP32" names="StatefulPartitionedCall/model/block_11_expand_relu/Relu6:0">
					<dim>1</dim>
					<dim>576</dim>
					<dim>14</dim>
					<dim>14</dim>
				</port>
			</output>
		</layer>
		<layer id="182" name="StatefulPartitionedCall/model/block_11_depthwise_BN/FusedBatchNormV3/mean/Fused_Mul__copy" type="Const" version="opset1">
			<data element_type="f32" shape="576, 1, 1, 3, 3" offset="1425244" size="20736"/>
			<output>
				<port id="0" precision="FP32" names="StatefulPartitionedCall/model/block_11_depthwise/depthwise/ReadVariableOp:0">
					<dim>576</dim>
					<dim>1</dim>
					<dim>1</dim>
					<dim>3</dim>
					<dim>3</dim>
				</port>
			</output>
		</layer>
		<layer id="183" name="StatefulPartitionedCall/model/block_11_depthwise/depthwise" type="GroupConvolution" version="opset1">
			<data strides="1, 1" pads_begin="1, 1" pads_end="1, 1" dilations="1, 1" auto_pad="same_upper"/>
			<input>
				<port id="0" precision="FP32">
					<dim>1</dim>
					<dim>576</dim>
					<dim>14</dim>
					<dim>14</dim>
				</port>
				<port id="1" precision="FP32">
					<dim>576</dim>
					<dim>1</dim>
					<dim>1</dim>
					<dim>3</dim>
					<dim>3</dim>
				</port>
			</input>
			<output>
				<port id="2" precision="FP32">
					<dim>1</dim>
					<dim>576</dim>
					<dim>14</dim>
					<dim>14</dim>
				</port>
			</output>
		</layer>
		<layer id="184" name="data_add_1240512410" type="Const" version="opset1">
			<data element_type="f32" shape="1, 576, 1, 1" offset="1445980" size="2304"/>
			<output>
				<port id="0" precision="FP32">
					<dim>1</dim>
					<dim>576</dim>
					<dim>1</dim>
					<dim>1</dim>
				</port>
			</output>
		</layer>
		<layer id="185" name="StatefulPartitionedCall/model/block_11_depthwise_BN/FusedBatchNormV3/variance/Fused_Add_" type="Add" version="opset1">
			<data auto_broadcast="numpy"/>
			<input>
				<port id="0" precision="FP32">
					<dim>1</dim>
					<dim>576</dim>
					<dim>14</dim>
					<dim>14</dim>
				</port>
				<port id="1" precision="FP32">
					<dim>1</dim>
					<dim>576</dim>
					<dim>1</dim>
					<dim>1</dim>
				</port>
			</input>
			<output>
				<port id="2" precision="FP32" names="StatefulPartitionedCall/model/block_11_depthwise_BN/FusedBatchNormV3:0">
					<dim>1</dim>
					<dim>576</dim>
					<dim>14</dim>
					<dim>14</dim>
				</port>
			</output>
		</layer>
		<layer id="186" name="StatefulPartitionedCall/model/block_11_depthwise_relu/Relu6" type="Clamp" version="opset1">
			<data min="0" max="6"/>
			<input>
				<port id="0" precision="FP32">
					<dim>1</dim>
					<dim>576</dim>
					<dim>14</dim>
					<dim>14</dim>
				</port>
			</input>
			<output>
				<port id="1" precision="FP32" names="StatefulPartitionedCall/model/block_11_depthwise_relu/Relu6:0">
					<dim>1</dim>
					<dim>576</dim>
					<dim>14</dim>
					<dim>14</dim>
				</port>
			</output>
		</layer>
		<layer id="187" name="StatefulPartitionedCall/model/block_11_project_BN/FusedBatchNormV3/mean/Fused_Mul__copy" type="Const" version="opset1">
			<data element_type="f32" shape="96, 576, 1, 1" offset="1448284" size="221184"/>
			<output>
				<port id="0" precision="FP32" names="StatefulPartitionedCall/model/block_11_project/Conv2D/ReadVariableOp:0">
					<dim>96</dim>
					<dim>576</dim>
					<dim>1</dim>
					<dim>1</dim>
				</port>
			</output>
		</layer>
		<layer id="188" name="StatefulPartitionedCall/model/block_11_project/Conv2D" type="Convolution" version="opset1">
			<data strides="1, 1" dilations="1, 1" pads_begin="0, 0" pads_end="0, 0" auto_pad="same_upper"/>
			<input>
				<port id="0" precision="FP32">
					<dim>1</dim>
					<dim>576</dim>
					<dim>14</dim>
					<dim>14</dim>
				</port>
				<port id="1" precision="FP32">
					<dim>96</dim>
					<dim>576</dim>
					<dim>1</dim>
					<dim>1</dim>
				</port>
			</input>
			<output>
				<port id="2" precision="FP32">
					<dim>1</dim>
					<dim>96</dim>
					<dim>14</dim>
					<dim>14</dim>
				</port>
			</output>
		</layer>
		<layer id="189" name="data_add_1241312418" type="Const" version="opset1">
			<data element_type="f32" shape="1, 96, 1, 1" offset="1669468" size="384"/>
			<output>
				<port id="0" precision="FP32">
					<dim>1</dim>
					<dim>96</dim>
					<dim>1</dim>
					<dim>1</dim>
				</port>
			</output>
		</layer>
		<layer id="190" name="StatefulPartitionedCall/model/block_11_project_BN/FusedBatchNormV3/variance/Fused_Add_" type="Add" version="opset1">
			<data auto_broadcast="numpy"/>
			<input>
				<port id="0" precision="FP32">
					<dim>1</dim>
					<dim>96</dim>
					<dim>14</dim>
					<dim>14</dim>
				</port>
				<port id="1" precision="FP32">
					<dim>1</dim>
					<dim>96</dim>
					<dim>1</dim>
					<dim>1</dim>
				</port>
			</input>
			<output>
				<port id="2" precision="FP32" names="StatefulPartitionedCall/model/block_11_project_BN/FusedBatchNormV3:0">
					<dim>1</dim>
					<dim>96</dim>
					<dim>14</dim>
					<dim>14</dim>
				</port>
			</output>
		</layer>
		<layer id="191" name="StatefulPartitionedCall/model/block_11_add/add" type="Add" version="opset1">
			<data auto_broadcast="numpy"/>
			<input>
				<port id="0" precision="FP32">
					<dim>1</dim>
					<dim>96</dim>
					<dim>14</dim>
					<dim>14</dim>
				</port>
				<port id="1" precision="FP32">
					<dim>1</dim>
					<dim>96</dim>
					<dim>14</dim>
					<dim>14</dim>
				</port>
			</input>
			<output>
				<port id="2" precision="FP32" names="StatefulPartitionedCall/model/block_11_add/add:0">
					<dim>1</dim>
					<dim>96</dim>
					<dim>14</dim>
					<dim>14</dim>
				</port>
			</output>
		</layer>
		<layer id="192" name="StatefulPartitionedCall/model/block_12_expand_BN/FusedBatchNormV3/mean/Fused_Mul__copy" type="Const" version="opset1">
			<data element_type="f32" shape="576, 96, 1, 1" offset="1669852" size="221184"/>
			<output>
				<port id="0" precision="FP32" names="StatefulPartitionedCall/model/block_12_expand/Conv2D/ReadVariableOp:0">
					<dim>576</dim>
					<dim>96</dim>
					<dim>1</dim>
					<dim>1</dim>
				</port>
			</output>
		</layer>
		<layer id="193" name="StatefulPartitionedCall/model/block_12_expand/Conv2D" type="Convolution" version="opset1">
			<data strides="1, 1" dilations="1, 1" pads_begin="0, 0" pads_end="0, 0" auto_pad="same_upper"/>
			<input>
				<port id="0" precision="FP32">
					<dim>1</dim>
					<dim>96</dim>
					<dim>14</dim>
					<dim>14</dim>
				</port>
				<port id="1" precision="FP32">
					<dim>576</dim>
					<dim>96</dim>
					<dim>1</dim>
					<dim>1</dim>
				</port>
			</input>
			<output>
				<port id="2" precision="FP32">
					<dim>1</dim>
					<dim>576</dim>
					<dim>14</dim>
					<dim>14</dim>
				</port>
			</output>
		</layer>
		<layer id="194" name="data_add_1242112426" type="Const" version="opset1">
			<data element_type="f32" shape="1, 576, 1, 1" offset="1891036" size="2304"/>
			<output>
				<port id="0" precision="FP32">
					<dim>1</dim>
					<dim>576</dim>
					<dim>1</dim>
					<dim>1</dim>
				</port>
			</output>
		</layer>
		<layer id="195" name="StatefulPartitionedCall/model/block_12_expand_BN/FusedBatchNormV3/variance/Fused_Add_" type="Add" version="opset1">
			<data auto_broadcast="numpy"/>
			<input>
				<port id="0" precision="FP32">
					<dim>1</dim>
					<dim>576</dim>
					<dim>14</dim>
					<dim>14</dim>
				</port>
				<port id="1" precision="FP32">
					<dim>1</dim>
					<dim>576</dim>
					<dim>1</dim>
					<dim>1</dim>
				</port>
			</input>
			<output>
				<port id="2" precision="FP32" names="StatefulPartitionedCall/model/block_12_expand_BN/FusedBatchNormV3:0">
					<dim>1</dim>
					<dim>576</dim>
					<dim>14</dim>
					<dim>14</dim>
				</port>
			</output>
		</layer>
		<layer id="196" name="StatefulPartitionedCall/model/block_12_expand_relu/Relu6" type="Clamp" version="opset1">
			<data min="0" max="6"/>
			<input>
				<port id="0" precision="FP32">
					<dim>1</dim>
					<dim>576</dim>
					<dim>14</dim>
					<dim>14</dim>
				</port>
			</input>
			<output>
				<port id="1" precision="FP32" names="StatefulPartitionedCall/model/block_12_expand_relu/Relu6:0">
					<dim>1</dim>
					<dim>576</dim>
					<dim>14</dim>
					<dim>14</dim>
				</port>
			</output>
		</layer>
		<layer id="197" name="StatefulPartitionedCall/model/block_12_depthwise_BN/FusedBatchNormV3/mean/Fused_Mul__copy" type="Const" version="opset1">
			<data element_type="f32" shape="576, 1, 1, 3, 3" offset="1893340" size="20736"/>
			<output>
				<port id="0" precision="FP32" names="StatefulPartitionedCall/model/block_12_depthwise/depthwise/ReadVariableOp:0">
					<dim>576</dim>
					<dim>1</dim>
					<dim>1</dim>
					<dim>3</dim>
					<dim>3</dim>
				</port>
			</output>
		</layer>
		<layer id="198" name="StatefulPartitionedCall/model/block_12_depthwise/depthwise" type="GroupConvolution" version="opset1">
			<data strides="1, 1" pads_begin="1, 1" pads_end="1, 1" dilations="1, 1" auto_pad="same_upper"/>
			<input>
				<port id="0" precision="FP32">
					<dim>1</dim>
					<dim>576</dim>
					<dim>14</dim>
					<dim>14</dim>
				</port>
				<port id="1" precision="FP32">
					<dim>576</dim>
					<dim>1</dim>
					<dim>1</dim>
					<dim>3</dim>
					<dim>3</dim>
				</port>
			</input>
			<output>
				<port id="2" precision="FP32">
					<dim>1</dim>
					<dim>576</dim>
					<dim>14</dim>
					<dim>14</dim>
				</port>
			</output>
		</layer>
		<layer id="199" name="data_add_1242912434" type="Const" version="opset1">
			<data element_type="f32" shape="1, 576, 1, 1" offset="1914076" size="2304"/>
			<output>
				<port id="0" precision="FP32">
					<dim>1</dim>
					<dim>576</dim>
					<dim>1</dim>
					<dim>1</dim>
				</port>
			</output>
		</layer>
		<layer id="200" name="StatefulPartitionedCall/model/block_12_depthwise_BN/FusedBatchNormV3/variance/Fused_Add_" type="Add" version="opset1">
			<data auto_broadcast="numpy"/>
			<input>
				<port id="0" precision="FP32">
					<dim>1</dim>
					<dim>576</dim>
					<dim>14</dim>
					<dim>14</dim>
				</port>
				<port id="1" precision="FP32">
					<dim>1</dim>
					<dim>576</dim>
					<dim>1</dim>
					<dim>1</dim>
				</port>
			</input>
			<output>
				<port id="2" precision="FP32" names="StatefulPartitionedCall/model/block_12_depthwise_BN/FusedBatchNormV3:0">
					<dim>1</dim>
					<dim>576</dim>
					<dim>14</dim>
					<dim>14</dim>
				</port>
			</output>
		</layer>
		<layer id="201" name="StatefulPartitionedCall/model/block_12_depthwise_relu/Relu6" type="Clamp" version="opset1">
			<data min="0" max="6"/>
			<input>
				<port id="0" precision="FP32">
					<dim>1</dim>
					<dim>576</dim>
					<dim>14</dim>
					<dim>14</dim>
				</port>
			</input>
			<output>
				<port id="1" precision="FP32" names="StatefulPartitionedCall/model/block_12_depthwise_relu/Relu6:0">
					<dim>1</dim>
					<dim>576</dim>
					<dim>14</dim>
					<dim>14</dim>
				</port>
			</output>
		</layer>
		<layer id="202" name="StatefulPartitionedCall/model/block_12_project_BN/FusedBatchNormV3/mean/Fused_Mul__copy" type="Const" version="opset1">
			<data element_type="f32" shape="96, 576, 1, 1" offset="1916380" size="221184"/>
			<output>
				<port id="0" precision="FP32" names="StatefulPartitionedCall/model/block_12_project/Conv2D/ReadVariableOp:0">
					<dim>96</dim>
					<dim>576</dim>
					<dim>1</dim>
					<dim>1</dim>
				</port>
			</output>
		</layer>
		<layer id="203" name="StatefulPartitionedCall/model/block_12_project/Conv2D" type="Convolution" version="opset1">
			<data strides="1, 1" dilations="1, 1" pads_begin="0, 0" pads_end="0, 0" auto_pad="same_upper"/>
			<input>
				<port id="0" precision="FP32">
					<dim>1</dim>
					<dim>576</dim>
					<dim>14</dim>
					<dim>14</dim>
				</port>
				<port id="1" precision="FP32">
					<dim>96</dim>
					<dim>576</dim>
					<dim>1</dim>
					<dim>1</dim>
				</port>
			</input>
			<output>
				<port id="2" precision="FP32">
					<dim>1</dim>
					<dim>96</dim>
					<dim>14</dim>
					<dim>14</dim>
				</port>
			</output>
		</layer>
		<layer id="204" name="data_add_1243712442" type="Const" version="opset1">
			<data element_type="f32" shape="1, 96, 1, 1" offset="2137564" size="384"/>
			<output>
				<port id="0" precision="FP32">
					<dim>1</dim>
					<dim>96</dim>
					<dim>1</dim>
					<dim>1</dim>
				</port>
			</output>
		</layer>
		<layer id="205" name="StatefulPartitionedCall/model/block_12_project_BN/FusedBatchNormV3/variance/Fused_Add_" type="Add" version="opset1">
			<data auto_broadcast="numpy"/>
			<input>
				<port id="0" precision="FP32">
					<dim>1</dim>
					<dim>96</dim>
					<dim>14</dim>
					<dim>14</dim>
				</port>
				<port id="1" precision="FP32">
					<dim>1</dim>
					<dim>96</dim>
					<dim>1</dim>
					<dim>1</dim>
				</port>
			</input>
			<output>
				<port id="2" precision="FP32" names="StatefulPartitionedCall/model/block_12_project_BN/FusedBatchNormV3:0">
					<dim>1</dim>
					<dim>96</dim>
					<dim>14</dim>
					<dim>14</dim>
				</port>
			</output>
		</layer>
		<layer id="206" name="StatefulPartitionedCall/model/block_12_add/add" type="Add" version="opset1">
			<data auto_broadcast="numpy"/>
			<input>
				<port id="0" precision="FP32">
					<dim>1</dim>
					<dim>96</dim>
					<dim>14</dim>
					<dim>14</dim>
				</port>
				<port id="1" precision="FP32">
					<dim>1</dim>
					<dim>96</dim>
					<dim>14</dim>
					<dim>14</dim>
				</port>
			</input>
			<output>
				<port id="2" precision="FP32" names="StatefulPartitionedCall/model/block_12_add/add:0">
					<dim>1</dim>
					<dim>96</dim>
					<dim>14</dim>
					<dim>14</dim>
				</port>
			</output>
		</layer>
		<layer id="207" name="StatefulPartitionedCall/model/block_13_expand_BN/FusedBatchNormV3/mean/Fused_Mul__copy" type="Const" version="opset1">
			<data element_type="f32" shape="576, 96, 1, 1" offset="2137948" size="221184"/>
			<output>
				<port id="0" precision="FP32" names="StatefulPartitionedCall/model/block_13_expand/Conv2D/ReadVariableOp:0">
					<dim>576</dim>
					<dim>96</dim>
					<dim>1</dim>
					<dim>1</dim>
				</port>
			</output>
		</layer>
		<layer id="208" name="StatefulPartitionedCall/model/block_13_expand/Conv2D" type="Convolution" version="opset1">
			<data strides="1, 1" dilations="1, 1" pads_begin="0, 0" pads_end="0, 0" auto_pad="same_upper"/>
			<input>
				<port id="0" precision="FP32">
					<dim>1</dim>
					<dim>96</dim>
					<dim>14</dim>
					<dim>14</dim>
				</port>
				<port id="1" precision="FP32">
					<dim>576</dim>
					<dim>96</dim>
					<dim>1</dim>
					<dim>1</dim>
				</port>
			</input>
			<output>
				<port id="2" precision="FP32">
					<dim>1</dim>
					<dim>576</dim>
					<dim>14</dim>
					<dim>14</dim>
				</port>
			</output>
		</layer>
		<layer id="209" name="data_add_1244512450" type="Const" version="opset1">
			<data element_type="f32" shape="1, 576, 1, 1" offset="2359132" size="2304"/>
			<output>
				<port id="0" precision="FP32">
					<dim>1</dim>
					<dim>576</dim>
					<dim>1</dim>
					<dim>1</dim>
				</port>
			</output>
		</layer>
		<layer id="210" name="StatefulPartitionedCall/model/block_13_expand_BN/FusedBatchNormV3/variance/Fused_Add_" type="Add" version="opset1">
			<data auto_broadcast="numpy"/>
			<input>
				<port id="0" precision="FP32">
					<dim>1</dim>
					<dim>576</dim>
					<dim>14</dim>
					<dim>14</dim>
				</port>
				<port id="1" precision="FP32">
					<dim>1</dim>
					<dim>576</dim>
					<dim>1</dim>
					<dim>1</dim>
				</port>
			</input>
			<output>
				<port id="2" precision="FP32" names="StatefulPartitionedCall/model/block_13_expand_BN/FusedBatchNormV3:0">
					<dim>1</dim>
					<dim>576</dim>
					<dim>14</dim>
					<dim>14</dim>
				</port>
			</output>
		</layer>
		<layer id="211" name="StatefulPartitionedCall/model/block_13_expand_relu/Relu6" type="Clamp" version="opset1">
			<data min="0" max="6"/>
			<input>
				<port id="0" precision="FP32">
					<dim>1</dim>
					<dim>576</dim>
					<dim>14</dim>
					<dim>14</dim>
				</port>
			</input>
			<output>
				<port id="1" precision="FP32" names="StatefulPartitionedCall/model/block_13_expand_relu/Relu6:0">
					<dim>1</dim>
					<dim>576</dim>
					<dim>14</dim>
					<dim>14</dim>
				</port>
			</output>
		</layer>
		<layer id="212" name="1623721776" type="Const" version="opset1">
			<data element_type="i64" shape="4" offset="13528" size="32"/>
			<output>
				<port id="0" precision="I64">
					<dim>4</dim>
				</port>
			</output>
		</layer>
		<layer id="213" name="1624321854" type="Const" version="opset1">
			<data element_type="i64" shape="4" offset="13560" size="32"/>
			<output>
				<port id="0" precision="I64">
					<dim>4</dim>
				</port>
			</output>
		</layer>
		<layer id="214" name="Constant_426" type="Const" version="opset1">
			<data element_type="f32" shape="" offset="13592" size="4"/>
			<output>
				<port id="0" precision="FP32"/>
			</output>
		</layer>
		<layer id="215" name="StatefulPartitionedCall/model/block_13_pad/Pad" type="Pad" version="opset1">
			<data pad_mode="constant"/>
			<input>
				<port id="0" precision="FP32">
					<dim>1</dim>
					<dim>576</dim>
					<dim>14</dim>
					<dim>14</dim>
				</port>
				<port id="1" precision="I64">
					<dim>4</dim>
				</port>
				<port id="2" precision="I64">
					<dim>4</dim>
				</port>
				<port id="3" precision="FP32"/>
			</input>
			<output>
				<port id="4" precision="FP32" names="StatefulPartitionedCall/model/block_13_pad/Pad:0">
					<dim>1</dim>
					<dim>576</dim>
					<dim>15</dim>
					<dim>15</dim>
				</port>
			</output>
		</layer>
		<layer id="216" name="StatefulPartitionedCall/model/block_13_depthwise_BN/FusedBatchNormV3/mean/Fused_Mul__copy" type="Const" version="opset1">
			<data element_type="f32" shape="576, 1, 1, 3, 3" offset="2361436" size="20736"/>
			<output>
				<port id="0" precision="FP32" names="StatefulPartitionedCall/model/block_13_depthwise/depthwise/ReadVariableOp:0">
					<dim>576</dim>
					<dim>1</dim>
					<dim>1</dim>
					<dim>3</dim>
					<dim>3</dim>
				</port>
			</output>
		</layer>
		<layer id="217" name="StatefulPartitionedCall/model/block_13_depthwise/depthwise" type="GroupConvolution" version="opset1">
			<data strides="2, 2" pads_begin="0, 0" pads_end="0, 0" dilations="1, 1" auto_pad="valid"/>
			<input>
				<port id="0" precision="FP32">
					<dim>1</dim>
					<dim>576</dim>
					<dim>15</dim>
					<dim>15</dim>
				</port>
				<port id="1" precision="FP32">
					<dim>576</dim>
					<dim>1</dim>
					<dim>1</dim>
					<dim>3</dim>
					<dim>3</dim>
				</port>
			</input>
			<output>
				<port id="2" precision="FP32">
					<dim>1</dim>
					<dim>576</dim>
					<dim>7</dim>
					<dim>7</dim>
				</port>
			</output>
		</layer>
		<layer id="218" name="data_add_1245312458" type="Const" version="opset1">
			<data element_type="f32" shape="1, 576, 1, 1" offset="2382172" size="2304"/>
			<output>
				<port id="0" precision="FP32">
					<dim>1</dim>
					<dim>576</dim>
					<dim>1</dim>
					<dim>1</dim>
				</port>
			</output>
		</layer>
		<layer id="219" name="StatefulPartitionedCall/model/block_13_depthwise_BN/FusedBatchNormV3/variance/Fused_Add_" type="Add" version="opset1">
			<data auto_broadcast="numpy"/>
			<input>
				<port id="0" precision="FP32">
					<dim>1</dim>
					<dim>576</dim>
					<dim>7</dim>
					<dim>7</dim>
				</port>
				<port id="1" precision="FP32">
					<dim>1</dim>
					<dim>576</dim>
					<dim>1</dim>
					<dim>1</dim>
				</port>
			</input>
			<output>
				<port id="2" precision="FP32" names="StatefulPartitionedCall/model/block_13_depthwise_BN/FusedBatchNormV3:0">
					<dim>1</dim>
					<dim>576</dim>
					<dim>7</dim>
					<dim>7</dim>
				</port>
			</output>
		</layer>
		<layer id="220" name="StatefulPartitionedCall/model/block_13_depthwise_relu/Relu6" type="Clamp" version="opset1">
			<data min="0" max="6"/>
			<input>
				<port id="0" precision="FP32">
					<dim>1</dim>
					<dim>576</dim>
					<dim>7</dim>
					<dim>7</dim>
				</port>
			</input>
			<output>
				<port id="1" precision="FP32" names="StatefulPartitionedCall/model/block_13_depthwise_relu/Relu6:0">
					<dim>1</dim>
					<dim>576</dim>
					<dim>7</dim>
					<dim>7</dim>
				</port>
			</output>
		</layer>
		<layer id="221" name="StatefulPartitionedCall/model/block_13_project_BN/FusedBatchNormV3/mean/Fused_Mul__copy" type="Const" version="opset1">
			<data element_type="f32" shape="160, 576, 1, 1" offset="2384476" size="368640"/>
			<output>
				<port id="0" precision="FP32" names="StatefulPartitionedCall/model/block_13_project/Conv2D/ReadVariableOp:0">
					<dim>160</dim>
					<dim>576</dim>
					<dim>1</dim>
					<dim>1</dim>
				</port>
			</output>
		</layer>
		<layer id="222" name="StatefulPartitionedCall/model/block_13_project/Conv2D" type="Convolution" version="opset1">
			<data strides="1, 1" dilations="1, 1" pads_begin="0, 0" pads_end="0, 0" auto_pad="same_upper"/>
			<input>
				<port id="0" precision="FP32">
					<dim>1</dim>
					<dim>576</dim>
					<dim>7</dim>
					<dim>7</dim>
				</port>
				<port id="1" precision="FP32">
					<dim>160</dim>
					<dim>576</dim>
					<dim>1</dim>
					<dim>1</dim>
				</port>
			</input>
			<output>
				<port id="2" precision="FP32">
					<dim>1</dim>
					<dim>160</dim>
					<dim>7</dim>
					<dim>7</dim>
				</port>
			</output>
		</layer>
		<layer id="223" name="data_add_1246112466" type="Const" version="opset1">
			<data element_type="f32" shape="1, 160, 1, 1" offset="2753116" size="640"/>
			<output>
				<port id="0" precision="FP32">
					<dim>1</dim>
					<dim>160</dim>
					<dim>1</dim>
					<dim>1</dim>
				</port>
			</output>
		</layer>
		<layer id="224" name="StatefulPartitionedCall/model/block_13_project_BN/FusedBatchNormV3/variance/Fused_Add_" type="Add" version="opset1">
			<data auto_broadcast="numpy"/>
			<input>
				<port id="0" precision="FP32">
					<dim>1</dim>
					<dim>160</dim>
					<dim>7</dim>
					<dim>7</dim>
				</port>
				<port id="1" precision="FP32">
					<dim>1</dim>
					<dim>160</dim>
					<dim>1</dim>
					<dim>1</dim>
				</port>
			</input>
			<output>
				<port id="2" precision="FP32" names="StatefulPartitionedCall/model/block_13_project_BN/FusedBatchNormV3:0">
					<dim>1</dim>
					<dim>160</dim>
					<dim>7</dim>
					<dim>7</dim>
				</port>
			</output>
		</layer>
		<layer id="225" name="StatefulPartitionedCall/model/block_14_expand_BN/FusedBatchNormV3/mean/Fused_Mul__copy" type="Const" version="opset1">
			<data element_type="f32" shape="960, 160, 1, 1" offset="2753756" size="614400"/>
			<output>
				<port id="0" precision="FP32" names="StatefulPartitionedCall/model/block_14_expand/Conv2D/ReadVariableOp:0">
					<dim>960</dim>
					<dim>160</dim>
					<dim>1</dim>
					<dim>1</dim>
				</port>
			</output>
		</layer>
		<layer id="226" name="StatefulPartitionedCall/model/block_14_expand/Conv2D" type="Convolution" version="opset1">
			<data strides="1, 1" dilations="1, 1" pads_begin="0, 0" pads_end="0, 0" auto_pad="same_upper"/>
			<input>
				<port id="0" precision="FP32">
					<dim>1</dim>
					<dim>160</dim>
					<dim>7</dim>
					<dim>7</dim>
				</port>
				<port id="1" precision="FP32">
					<dim>960</dim>
					<dim>160</dim>
					<dim>1</dim>
					<dim>1</dim>
				</port>
			</input>
			<output>
				<port id="2" precision="FP32">
					<dim>1</dim>
					<dim>960</dim>
					<dim>7</dim>
					<dim>7</dim>
				</port>
			</output>
		</layer>
		<layer id="227" name="data_add_1246912474" type="Const" version="opset1">
			<data element_type="f32" shape="1, 960, 1, 1" offset="3368156" size="3840"/>
			<output>
				<port id="0" precision="FP32">
					<dim>1</dim>
					<dim>960</dim>
					<dim>1</dim>
					<dim>1</dim>
				</port>
			</output>
		</layer>
		<layer id="228" name="StatefulPartitionedCall/model/block_14_expand_BN/FusedBatchNormV3/variance/Fused_Add_" type="Add" version="opset1">
			<data auto_broadcast="numpy"/>
			<input>
				<port id="0" precision="FP32">
					<dim>1</dim>
					<dim>960</dim>
					<dim>7</dim>
					<dim>7</dim>
				</port>
				<port id="1" precision="FP32">
					<dim>1</dim>
					<dim>960</dim>
					<dim>1</dim>
					<dim>1</dim>
				</port>
			</input>
			<output>
				<port id="2" precision="FP32" names="StatefulPartitionedCall/model/block_14_expand_BN/FusedBatchNormV3:0">
					<dim>1</dim>
					<dim>960</dim>
					<dim>7</dim>
					<dim>7</dim>
				</port>
			</output>
		</layer>
		<layer id="229" name="StatefulPartitionedCall/model/block_14_expand_relu/Relu6" type="Clamp" version="opset1">
			<data min="0" max="6"/>
			<input>
				<port id="0" precision="FP32">
					<dim>1</dim>
					<dim>960</dim>
					<dim>7</dim>
					<dim>7</dim>
				</port>
			</input>
			<output>
				<port id="1" precision="FP32" names="StatefulPartitionedCall/model/block_14_expand_relu/Relu6:0">
					<dim>1</dim>
					<dim>960</dim>
					<dim>7</dim>
					<dim>7</dim>
				</port>
			</output>
		</layer>
		<layer id="230" name="StatefulPartitionedCall/model/block_14_depthwise_BN/FusedBatchNormV3/mean/Fused_Mul__copy" type="Const" version="opset1">
			<data element_type="f32" shape="960, 1, 1, 3, 3" offset="3371996" size="34560"/>
			<output>
				<port id="0" precision="FP32" names="StatefulPartitionedCall/model/block_14_depthwise/depthwise/ReadVariableOp:0">
					<dim>960</dim>
					<dim>1</dim>
					<dim>1</dim>
					<dim>3</dim>
					<dim>3</dim>
				</port>
			</output>
		</layer>
		<layer id="231" name="StatefulPartitionedCall/model/block_14_depthwise/depthwise" type="GroupConvolution" version="opset1">
			<data strides="1, 1" pads_begin="1, 1" pads_end="1, 1" dilations="1, 1" auto_pad="same_upper"/>
			<input>
				<port id="0" precision="FP32">
					<dim>1</dim>
					<dim>960</dim>
					<dim>7</dim>
					<dim>7</dim>
				</port>
				<port id="1" precision="FP32">
					<dim>960</dim>
					<dim>1</dim>
					<dim>1</dim>
					<dim>3</dim>
					<dim>3</dim>
				</port>
			</input>
			<output>
				<port id="2" precision="FP32">
					<dim>1</dim>
					<dim>960</dim>
					<dim>7</dim>
					<dim>7</dim>
				</port>
			</output>
		</layer>
		<layer id="232" name="data_add_1247712482" type="Const" version="opset1">
			<data element_type="f32" shape="1, 960, 1, 1" offset="3406556" size="3840"/>
			<output>
				<port id="0" precision="FP32">
					<dim>1</dim>
					<dim>960</dim>
					<dim>1</dim>
					<dim>1</dim>
				</port>
			</output>
		</layer>
		<layer id="233" name="StatefulPartitionedCall/model/block_14_depthwise_BN/FusedBatchNormV3/variance/Fused_Add_" type="Add" version="opset1">
			<data auto_broadcast="numpy"/>
			<input>
				<port id="0" precision="FP32">
					<dim>1</dim>
					<dim>960</dim>
					<dim>7</dim>
					<dim>7</dim>
				</port>
				<port id="1" precision="FP32">
					<dim>1</dim>
					<dim>960</dim>
					<dim>1</dim>
					<dim>1</dim>
				</port>
			</input>
			<output>
				<port id="2" precision="FP32" names="StatefulPartitionedCall/model/block_14_depthwise_BN/FusedBatchNormV3:0">
					<dim>1</dim>
					<dim>960</dim>
					<dim>7</dim>
					<dim>7</dim>
				</port>
			</output>
		</layer>
		<layer id="234" name="StatefulPartitionedCall/model/block_14_depthwise_relu/Relu6" type="Clamp" version="opset1">
			<data min="0" max="6"/>
			<input>
				<port id="0" precision="FP32">
					<dim>1</dim>
					<dim>960</dim>
					<dim>7</dim>
					<dim>7</dim>
				</port>
			</input>
			<output>
				<port id="1" precision="FP32" names="StatefulPartitionedCall/model/block_14_depthwise_relu/Relu6:0">
					<dim>1</dim>
					<dim>960</dim>
					<dim>7</dim>
					<dim>7</dim>
				</port>
			</output>
		</layer>
		<layer id="235" name="StatefulPartitionedCall/model/block_14_project_BN/FusedBatchNormV3/mean/Fused_Mul__copy" type="Const" version="opset1">
			<data element_type="f32" shape="160, 960, 1, 1" offset="3410396" size="614400"/>
			<output>
				<port id="0" precision="FP32" names="StatefulPartitionedCall/model/block_14_project/Conv2D/ReadVariableOp:0">
					<dim>160</dim>
					<dim>960</dim>
					<dim>1</dim>
					<dim>1</dim>
				</port>
			</output>
		</layer>
		<layer id="236" name="StatefulPartitionedCall/model/block_14_project/Conv2D" type="Convolution" version="opset1">
			<data strides="1, 1" dilations="1, 1" pads_begin="0, 0" pads_end="0, 0" auto_pad="same_upper"/>
			<input>
				<port id="0" precision="FP32">
					<dim>1</dim>
					<dim>960</dim>
					<dim>7</dim>
					<dim>7</dim>
				</port>
				<port id="1" precision="FP32">
					<dim>160</dim>
					<dim>960</dim>
					<dim>1</dim>
					<dim>1</dim>
				</port>
			</input>
			<output>
				<port id="2" precision="FP32">
					<dim>1</dim>
					<dim>160</dim>
					<dim>7</dim>
					<dim>7</dim>
				</port>
			</output>
		</layer>
		<layer id="237" name="data_add_1248512490" type="Const" version="opset1">
			<data element_type="f32" shape="1, 160, 1, 1" offset="4024796" size="640"/>
			<output>
				<port id="0" precision="FP32">
					<dim>1</dim>
					<dim>160</dim>
					<dim>1</dim>
					<dim>1</dim>
				</port>
			</output>
		</layer>
		<layer id="238" name="StatefulPartitionedCall/model/block_14_project_BN/FusedBatchNormV3/variance/Fused_Add_" type="Add" version="opset1">
			<data auto_broadcast="numpy"/>
			<input>
				<port id="0" precision="FP32">
					<dim>1</dim>
					<dim>160</dim>
					<dim>7</dim>
					<dim>7</dim>
				</port>
				<port id="1" precision="FP32">
					<dim>1</dim>
					<dim>160</dim>
					<dim>1</dim>
					<dim>1</dim>
				</port>
			</input>
			<output>
				<port id="2" precision="FP32" names="StatefulPartitionedCall/model/block_14_project_BN/FusedBatchNormV3:0">
					<dim>1</dim>
					<dim>160</dim>
					<dim>7</dim>
					<dim>7</dim>
				</port>
			</output>
		</layer>
		<layer id="239" name="StatefulPartitionedCall/model/block_14_add/add" type="Add" version="opset1">
			<data auto_broadcast="numpy"/>
			<input>
				<port id="0" precision="FP32">
					<dim>1</dim>
					<dim>160</dim>
					<dim>7</dim>
					<dim>7</dim>
				</port>
				<port id="1" precision="FP32">
					<dim>1</dim>
					<dim>160</dim>
					<dim>7</dim>
					<dim>7</dim>
				</port>
			</input>
			<output>
				<port id="2" precision="FP32" names="StatefulPartitionedCall/model/block_14_add/add:0">
					<dim>1</dim>
					<dim>160</dim>
					<dim>7</dim>
					<dim>7</dim>
				</port>
			</output>
		</layer>
		<layer id="240" name="StatefulPartitionedCall/model/block_15_expand_BN/FusedBatchNormV3/mean/Fused_Mul__copy" type="Const" version="opset1">
			<data element_type="f32" shape="960, 160, 1, 1" offset="4025436" size="614400"/>
			<output>
				<port id="0" precision="FP32" names="StatefulPartitionedCall/model/block_15_expand/Conv2D/ReadVariableOp:0">
					<dim>960</dim>
					<dim>160</dim>
					<dim>1</dim>
					<dim>1</dim>
				</port>
			</output>
		</layer>
		<layer id="241" name="StatefulPartitionedCall/model/block_15_expand/Conv2D" type="Convolution" version="opset1">
			<data strides="1, 1" dilations="1, 1" pads_begin="0, 0" pads_end="0, 0" auto_pad="same_upper"/>
			<input>
				<port id="0" precision="FP32">
					<dim>1</dim>
					<dim>160</dim>
					<dim>7</dim>
					<dim>7</dim>
				</port>
				<port id="1" precision="FP32">
					<dim>960</dim>
					<dim>160</dim>
					<dim>1</dim>
					<dim>1</dim>
				</port>
			</input>
			<output>
				<port id="2" precision="FP32">
					<dim>1</dim>
					<dim>960</dim>
					<dim>7</dim>
					<dim>7</dim>
				</port>
			</output>
		</layer>
		<layer id="242" name="data_add_1249312498" type="Const" version="opset1">
			<data element_type="f32" shape="1, 960, 1, 1" offset="4639836" size="3840"/>
			<output>
				<port id="0" precision="FP32">
					<dim>1</dim>
					<dim>960</dim>
					<dim>1</dim>
					<dim>1</dim>
				</port>
			</output>
		</layer>
		<layer id="243" name="StatefulPartitionedCall/model/block_15_expand_BN/FusedBatchNormV3/variance/Fused_Add_" type="Add" version="opset1">
			<data auto_broadcast="numpy"/>
			<input>
				<port id="0" precision="FP32">
					<dim>1</dim>
					<dim>960</dim>
					<dim>7</dim>
					<dim>7</dim>
				</port>
				<port id="1" precision="FP32">
					<dim>1</dim>
					<dim>960</dim>
					<dim>1</dim>
					<dim>1</dim>
				</port>
			</input>
			<output>
				<port id="2" precision="FP32" names="StatefulPartitionedCall/model/block_15_expand_BN/FusedBatchNormV3:0">
					<dim>1</dim>
					<dim>960</dim>
					<dim>7</dim>
					<dim>7</dim>
				</port>
			</output>
		</layer>
		<layer id="244" name="StatefulPartitionedCall/model/block_15_expand_relu/Relu6" type="Clamp" version="opset1">
			<data min="0" max="6"/>
			<input>
				<port id="0" precision="FP32">
					<dim>1</dim>
					<dim>960</dim>
					<dim>7</dim>
					<dim>7</dim>
				</port>
			</input>
			<output>
				<port id="1" precision="FP32" names="StatefulPartitionedCall/model/block_15_expand_relu/Relu6:0">
					<dim>1</dim>
					<dim>960</dim>
					<dim>7</dim>
					<dim>7</dim>
				</port>
			</output>
		</layer>
		<layer id="245" name="StatefulPartitionedCall/model/block_15_depthwise_BN/FusedBatchNormV3/mean/Fused_Mul__copy" type="Const" version="opset1">
			<data element_type="f32" shape="960, 1, 1, 3, 3" offset="4643676" size="34560"/>
			<output>
				<port id="0" precision="FP32" names="StatefulPartitionedCall/model/block_15_depthwise/depthwise/ReadVariableOp:0">
					<dim>960</dim>
					<dim>1</dim>
					<dim>1</dim>
					<dim>3</dim>
					<dim>3</dim>
				</port>
			</output>
		</layer>
		<layer id="246" name="StatefulPartitionedCall/model/block_15_depthwise/depthwise" type="GroupConvolution" version="opset1">
			<data strides="1, 1" pads_begin="1, 1" pads_end="1, 1" dilations="1, 1" auto_pad="same_upper"/>
			<input>
				<port id="0" precision="FP32">
					<dim>1</dim>
					<dim>960</dim>
					<dim>7</dim>
					<dim>7</dim>
				</port>
				<port id="1" precision="FP32">
					<dim>960</dim>
					<dim>1</dim>
					<dim>1</dim>
					<dim>3</dim>
					<dim>3</dim>
				</port>
			</input>
			<output>
				<port id="2" precision="FP32">
					<dim>1</dim>
					<dim>960</dim>
					<dim>7</dim>
					<dim>7</dim>
				</port>
			</output>
		</layer>
		<layer id="247" name="data_add_1250112506" type="Const" version="opset1">
			<data element_type="f32" shape="1, 960, 1, 1" offset="4678236" size="3840"/>
			<output>
				<port id="0" precision="FP32">
					<dim>1</dim>
					<dim>960</dim>
					<dim>1</dim>
					<dim>1</dim>
				</port>
			</output>
		</layer>
		<layer id="248" name="StatefulPartitionedCall/model/block_15_depthwise_BN/FusedBatchNormV3/variance/Fused_Add_" type="Add" version="opset1">
			<data auto_broadcast="numpy"/>
			<input>
				<port id="0" precision="FP32">
					<dim>1</dim>
					<dim>960</dim>
					<dim>7</dim>
					<dim>7</dim>
				</port>
				<port id="1" precision="FP32">
					<dim>1</dim>
					<dim>960</dim>
					<dim>1</dim>
					<dim>1</dim>
				</port>
			</input>
			<output>
				<port id="2" precision="FP32" names="StatefulPartitionedCall/model/block_15_depthwise_BN/FusedBatchNormV3:0">
					<dim>1</dim>
					<dim>960</dim>
					<dim>7</dim>
					<dim>7</dim>
				</port>
			</output>
		</layer>
		<layer id="249" name="StatefulPartitionedCall/model/block_15_depthwise_relu/Relu6" type="Clamp" version="opset1">
			<data min="0" max="6"/>
			<input>
				<port id="0" precision="FP32">
					<dim>1</dim>
					<dim>960</dim>
					<dim>7</dim>
					<dim>7</dim>
				</port>
			</input>
			<output>
				<port id="1" precision="FP32" names="StatefulPartitionedCall/model/block_15_depthwise_relu/Relu6:0">
					<dim>1</dim>
					<dim>960</dim>
					<dim>7</dim>
					<dim>7</dim>
				</port>
			</output>
		</layer>
		<layer id="250" name="StatefulPartitionedCall/model/block_15_project_BN/FusedBatchNormV3/mean/Fused_Mul__copy" type="Const" version="opset1">
			<data element_type="f32" shape="160, 960, 1, 1" offset="4682076" size="614400"/>
			<output>
				<port id="0" precision="FP32" names="StatefulPartitionedCall/model/block_15_project/Conv2D/ReadVariableOp:0">
					<dim>160</dim>
					<dim>960</dim>
					<dim>1</dim>
					<dim>1</dim>
				</port>
			</output>
		</layer>
		<layer id="251" name="StatefulPartitionedCall/model/block_15_project/Conv2D" type="Convolution" version="opset1">
			<data strides="1, 1" dilations="1, 1" pads_begin="0, 0" pads_end="0, 0" auto_pad="same_upper"/>
			<input>
				<port id="0" precision="FP32">
					<dim>1</dim>
					<dim>960</dim>
					<dim>7</dim>
					<dim>7</dim>
				</port>
				<port id="1" precision="FP32">
					<dim>160</dim>
					<dim>960</dim>
					<dim>1</dim>
					<dim>1</dim>
				</port>
			</input>
			<output>
				<port id="2" precision="FP32">
					<dim>1</dim>
					<dim>160</dim>
					<dim>7</dim>
					<dim>7</dim>
				</port>
			</output>
		</layer>
		<layer id="252" name="data_add_1250912514" type="Const" version="opset1">
			<data element_type="f32" shape="1, 160, 1, 1" offset="5296476" size="640"/>
			<output>
				<port id="0" precision="FP32">
					<dim>1</dim>
					<dim>160</dim>
					<dim>1</dim>
					<dim>1</dim>
				</port>
			</output>
		</layer>
		<layer id="253" name="StatefulPartitionedCall/model/block_15_project_BN/FusedBatchNormV3/variance/Fused_Add_" type="Add" version="opset1">
			<data auto_broadcast="numpy"/>
			<input>
				<port id="0" precision="FP32">
					<dim>1</dim>
					<dim>160</dim>
					<dim>7</dim>
					<dim>7</dim>
				</port>
				<port id="1" precision="FP32">
					<dim>1</dim>
					<dim>160</dim>
					<dim>1</dim>
					<dim>1</dim>
				</port>
			</input>
			<output>
				<port id="2" precision="FP32" names="StatefulPartitionedCall/model/block_15_project_BN/FusedBatchNormV3:0">
					<dim>1</dim>
					<dim>160</dim>
					<dim>7</dim>
					<dim>7</dim>
				</port>
			</output>
		</layer>
		<layer id="254" name="StatefulPartitionedCall/model/block_15_add/add" type="Add" version="opset1">
			<data auto_broadcast="numpy"/>
			<input>
				<port id="0" precision="FP32">
					<dim>1</dim>
					<dim>160</dim>
					<dim>7</dim>
					<dim>7</dim>
				</port>
				<port id="1" precision="FP32">
					<dim>1</dim>
					<dim>160</dim>
					<dim>7</dim>
					<dim>7</dim>
				</port>
			</input>
			<output>
				<port id="2" precision="FP32" names="StatefulPartitionedCall/model/block_15_add/add:0">
					<dim>1</dim>
					<dim>160</dim>
					<dim>7</dim>
					<dim>7</dim>
				</port>
			</output>
		</layer>
		<layer id="255" name="StatefulPartitionedCall/model/block_16_expand_BN/FusedBatchNormV3/mean/Fused_Mul__copy" type="Const" version="opset1">
			<data element_type="f32" shape="960, 160, 1, 1" offset="5297116" size="614400"/>
			<output>
				<port id="0" precision="FP32" names="StatefulPartitionedCall/model/block_16_expand/Conv2D/ReadVariableOp:0">
					<dim>960</dim>
					<dim>160</dim>
					<dim>1</dim>
					<dim>1</dim>
				</port>
			</output>
		</layer>
		<layer id="256" name="StatefulPartitionedCall/model/block_16_expand/Conv2D" type="Convolution" version="opset1">
			<data strides="1, 1" dilations="1, 1" pads_begin="0, 0" pads_end="0, 0" auto_pad="same_upper"/>
			<input>
				<port id="0" precision="FP32">
					<dim>1</dim>
					<dim>160</dim>
					<dim>7</dim>
					<dim>7</dim>
				</port>
				<port id="1" precision="FP32">
					<dim>960</dim>
					<dim>160</dim>
					<dim>1</dim>
					<dim>1</dim>
				</port>
			</input>
			<output>
				<port id="2" precision="FP32">
					<dim>1</dim>
					<dim>960</dim>
					<dim>7</dim>
					<dim>7</dim>
				</port>
			</output>
		</layer>
		<layer id="257" name="data_add_1251712522" type="Const" version="opset1">
			<data element_type="f32" shape="1, 960, 1, 1" offset="5911516" size="3840"/>
			<output>
				<port id="0" precision="FP32">
					<dim>1</dim>
					<dim>960</dim>
					<dim>1</dim>
					<dim>1</dim>
				</port>
			</output>
		</layer>
		<layer id="258" name="StatefulPartitionedCall/model/block_16_expand_BN/FusedBatchNormV3/variance/Fused_Add_" type="Add" version="opset1">
			<data auto_broadcast="numpy"/>
			<input>
				<port id="0" precision="FP32">
					<dim>1</dim>
					<dim>960</dim>
					<dim>7</dim>
					<dim>7</dim>
				</port>
				<port id="1" precision="FP32">
					<dim>1</dim>
					<dim>960</dim>
					<dim>1</dim>
					<dim>1</dim>
				</port>
			</input>
			<output>
				<port id="2" precision="FP32" names="StatefulPartitionedCall/model/block_16_expand_BN/FusedBatchNormV3:0">
					<dim>1</dim>
					<dim>960</dim>
					<dim>7</dim>
					<dim>7</dim>
				</port>
			</output>
		</layer>
		<layer id="259" name="StatefulPartitionedCall/model/block_16_expand_relu/Relu6" type="Clamp" version="opset1">
			<data min="0" max="6"/>
			<input>
				<port id="0" precision="FP32">
					<dim>1</dim>
					<dim>960</dim>
					<dim>7</dim>
					<dim>7</dim>
				</port>
			</input>
			<output>
				<port id="1" precision="FP32" names="StatefulPartitionedCall/model/block_16_expand_relu/Relu6:0">
					<dim>1</dim>
					<dim>960</dim>
					<dim>7</dim>
					<dim>7</dim>
				</port>
			</output>
		</layer>
		<layer id="260" name="StatefulPartitionedCall/model/block_16_depthwise_BN/FusedBatchNormV3/mean/Fused_Mul__copy" type="Const" version="opset1">
			<data element_type="f32" shape="960, 1, 1, 3, 3" offset="5915356" size="34560"/>
			<output>
				<port id="0" precision="FP32" names="StatefulPartitionedCall/model/block_16_depthwise/depthwise/ReadVariableOp:0">
					<dim>960</dim>
					<dim>1</dim>
					<dim>1</dim>
					<dim>3</dim>
					<dim>3</dim>
				</port>
			</output>
		</layer>
		<layer id="261" name="StatefulPartitionedCall/model/block_16_depthwise/depthwise" type="GroupConvolution" version="opset1">
			<data strides="1, 1" pads_begin="1, 1" pads_end="1, 1" dilations="1, 1" auto_pad="same_upper"/>
			<input>
				<port id="0" precision="FP32">
					<dim>1</dim>
					<dim>960</dim>
					<dim>7</dim>
					<dim>7</dim>
				</port>
				<port id="1" precision="FP32">
					<dim>960</dim>
					<dim>1</dim>
					<dim>1</dim>
					<dim>3</dim>
					<dim>3</dim>
				</port>
			</input>
			<output>
				<port id="2" precision="FP32">
					<dim>1</dim>
					<dim>960</dim>
					<dim>7</dim>
					<dim>7</dim>
				</port>
			</output>
		</layer>
		<layer id="262" name="data_add_1252512530" type="Const" version="opset1">
			<data element_type="f32" shape="1, 960, 1, 1" offset="5949916" size="3840"/>
			<output>
				<port id="0" precision="FP32">
					<dim>1</dim>
					<dim>960</dim>
					<dim>1</dim>
					<dim>1</dim>
				</port>
			</output>
		</layer>
		<layer id="263" name="StatefulPartitionedCall/model/block_16_depthwise_BN/FusedBatchNormV3/variance/Fused_Add_" type="Add" version="opset1">
			<data auto_broadcast="numpy"/>
			<input>
				<port id="0" precision="FP32">
					<dim>1</dim>
					<dim>960</dim>
					<dim>7</dim>
					<dim>7</dim>
				</port>
				<port id="1" precision="FP32">
					<dim>1</dim>
					<dim>960</dim>
					<dim>1</dim>
					<dim>1</dim>
				</port>
			</input>
			<output>
				<port id="2" precision="FP32" names="StatefulPartitionedCall/model/block_16_depthwise_BN/FusedBatchNormV3:0">
					<dim>1</dim>
					<dim>960</dim>
					<dim>7</dim>
					<dim>7</dim>
				</port>
			</output>
		</layer>
		<layer id="264" name="StatefulPartitionedCall/model/block_16_depthwise_relu/Relu6" type="Clamp" version="opset1">
			<data min="0" max="6"/>
			<input>
				<port id="0" precision="FP32">
					<dim>1</dim>
					<dim>960</dim>
					<dim>7</dim>
					<dim>7</dim>
				</port>
			</input>
			<output>
				<port id="1" precision="FP32" names="StatefulPartitionedCall/model/block_16_depthwise_relu/Relu6:0">
					<dim>1</dim>
					<dim>960</dim>
					<dim>7</dim>
					<dim>7</dim>
				</port>
			</output>
		</layer>
		<layer id="265" name="StatefulPartitionedCall/model/block_16_project_BN/FusedBatchNormV3/mean/Fused_Mul__copy" type="Const" version="opset1">
			<data element_type="f32" shape="320, 960, 1, 1" offset="5953756" size="1228800"/>
			<output>
				<port id="0" precision="FP32" names="StatefulPartitionedCall/model/block_16_project/Conv2D/ReadVariableOp:0">
					<dim>320</dim>
					<dim>960</dim>
					<dim>1</dim>
					<dim>1</dim>
				</port>
			</output>
		</layer>
		<layer id="266" name="StatefulPartitionedCall/model/block_16_project/Conv2D" type="Convolution" version="opset1">
			<data strides="1, 1" dilations="1, 1" pads_begin="0, 0" pads_end="0, 0" auto_pad="same_upper"/>
			<input>
				<port id="0" precision="FP32">
					<dim>1</dim>
					<dim>960</dim>
					<dim>7</dim>
					<dim>7</dim>
				</port>
				<port id="1" precision="FP32">
					<dim>320</dim>
					<dim>960</dim>
					<dim>1</dim>
					<dim>1</dim>
				</port>
			</input>
			<output>
				<port id="2" precision="FP32">
					<dim>1</dim>
					<dim>320</dim>
					<dim>7</dim>
					<dim>7</dim>
				</port>
			</output>
		</layer>
		<layer id="267" name="data_add_1253312538" type="Const" version="opset1">
			<data element_type="f32" shape="1, 320, 1, 1" offset="7182556" size="1280"/>
			<output>
				<port id="0" precision="FP32">
					<dim>1</dim>
					<dim>320</dim>
					<dim>1</dim>
					<dim>1</dim>
				</port>
			</output>
		</layer>
		<layer id="268" name="StatefulPartitionedCall/model/block_16_project_BN/FusedBatchNormV3/variance/Fused_Add_" type="Add" version="opset1">
			<data auto_broadcast="numpy"/>
			<input>
				<port id="0" precision="FP32">
					<dim>1</dim>
					<dim>320</dim>
					<dim>7</dim>
					<dim>7</dim>
				</port>
				<port id="1" precision="FP32">
					<dim>1</dim>
					<dim>320</dim>
					<dim>1</dim>
					<dim>1</dim>
				</port>
			</input>
			<output>
				<port id="2" precision="FP32" names="StatefulPartitionedCall/model/block_16_project_BN/FusedBatchNormV3:0">
					<dim>1</dim>
					<dim>320</dim>
					<dim>7</dim>
					<dim>7</dim>
				</port>
			</output>
		</layer>
		<layer id="269" name="StatefulPartitionedCall/model/Conv_1_bn/FusedBatchNormV3/mean/Fused_Mul__copy" type="Const" version="opset1">
			<data element_type="f32" shape="1280, 320, 1, 1" offset="7183836" size="1638400"/>
			<output>
				<port id="0" precision="FP32" names="StatefulPartitionedCall/model/Conv_1/Conv2D/ReadVariableOp:0">
					<dim>1280</dim>
					<dim>320</dim>
					<dim>1</dim>
					<dim>1</dim>
				</port>
			</output>
		</layer>
		<layer id="270" name="StatefulPartitionedCall/model/Conv_1/Conv2D" type="Convolution" version="opset1">
			<data strides="1, 1" dilations="1, 1" pads_begin="0, 0" pads_end="0, 0" auto_pad="valid"/>
			<input>
				<port id="0" precision="FP32">
					<dim>1</dim>
					<dim>320</dim>
					<dim>7</dim>
					<dim>7</dim>
				</port>
				<port id="1" precision="FP32">
					<dim>1280</dim>
					<dim>320</dim>
					<dim>1</dim>
					<dim>1</dim>
				</port>
			</input>
			<output>
				<port id="2" precision="FP32">
					<dim>1</dim>
					<dim>1280</dim>
					<dim>7</dim>
					<dim>7</dim>
				</port>
			</output>
		</layer>
		<layer id="271" name="data_add_1254112546" type="Const" version="opset1">
			<data element_type="f32" shape="1, 1280, 1, 1" offset="8822236" size="5120"/>
			<output>
				<port id="0" precision="FP32">
					<dim>1</dim>
					<dim>1280</dim>
					<dim>1</dim>
					<dim>1</dim>
				</port>
			</output>
		</layer>
		<layer id="272" name="StatefulPartitionedCall/model/Conv_1_bn/FusedBatchNormV3/variance/Fused_Add_" type="Add" version="opset1">
			<data auto_broadcast="numpy"/>
			<input>
				<port id="0" precision="FP32">
					<dim>1</dim>
					<dim>1280</dim>
					<dim>7</dim>
					<dim>7</dim>
				</port>
				<port id="1" precision="FP32">
					<dim>1</dim>
					<dim>1280</dim>
					<dim>1</dim>
					<dim>1</dim>
				</port>
			</input>
			<output>
				<port id="2" precision="FP32" names="StatefulPartitionedCall/model/Conv_1_bn/FusedBatchNormV3:0">
					<dim>1</dim>
					<dim>1280</dim>
					<dim>7</dim>
					<dim>7</dim>
				</port>
			</output>
		</layer>
		<layer id="273" name="StatefulPartitionedCall/model/out_relu/Relu6" type="Clamp" version="opset1">
			<data min="0" max="6"/>
			<input>
				<port id="0" precision="FP32">
					<dim>1</dim>
					<dim>1280</dim>
					<dim>7</dim>
					<dim>7</dim>
				</port>
			</input>
			<output>
				<port id="1" precision="FP32" names="StatefulPartitionedCall/model/out_relu/Relu6:0">
					<dim>1</dim>
					<dim>1280</dim>
					<dim>7</dim>
					<dim>7</dim>
				</port>
			</output>
		</layer>
		<layer id="274" name="StatefulPartitionedCall/model/average_pooling2d/AvgPool" type="AvgPool" version="opset1">
			<data kernel="7, 7" strides="7, 7" pads_begin="0, 0" pads_end="0, 0" exclude-pad="true" auto_pad="valid" rounding_type="floor"/>
			<input>
				<port id="0" precision="FP32">
					<dim>1</dim>
					<dim>1280</dim>
					<dim>7</dim>
					<dim>7</dim>
				</port>
			</input>
			<output>
				<port id="1" precision="FP32">
					<dim>1</dim>
					<dim>1280</dim>
					<dim>1</dim>
					<dim>1</dim>
				</port>
			</output>
		</layer>
		<layer id="275" name="StatefulPartitionedCall/model/average_pooling2d/AvgPool/Transpose/value1560621653" type="Const" version="opset1">
			<data element_type="i64" shape="4" offset="8827356" size="32"/>
			<output>
				<port id="0" precision="I64">
					<dim>4</dim>
				</port>
			</output>
		</layer>
		<layer id="276" name="StatefulPartitionedCall/model/average_pooling2d/AvgPool/Transpose" type="Transpose" version="opset1">
			<input>
				<port id="0" precision="FP32">
					<dim>1</dim>
					<dim>1280</dim>
					<dim>1</dim>
					<dim>1</dim>
				</port>
				<port id="1" precision="I64">
					<dim>4</dim>
				</port>
			</input>
			<output>
				<port id="2" precision="FP32" names="StatefulPartitionedCall/model/average_pooling2d/AvgPool:0">
					<dim>1</dim>
					<dim>1</dim>
					<dim>1</dim>
					<dim>1280</dim>
				</port>
			</output>
		</layer>
		<layer id="277" name="StatefulPartitionedCall/model/flatten/Const" type="Const" version="opset1">
			<data element_type="i64" shape="2" offset="8827388" size="16"/>
			<output>
				<port id="0" precision="I64" names="StatefulPartitionedCall/model/flatten/Const:0">
					<dim>2</dim>
				</port>
			</output>
		</layer>
		<layer id="278" name="StatefulPartitionedCall/model/flatten/Reshape" type="Reshape" version="opset1">
			<data special_zero="false"/>
			<input>
				<port id="0" precision="FP32">
					<dim>1</dim>
					<dim>1</dim>
					<dim>1</dim>
					<dim>1280</dim>
				</port>
				<port id="1" precision="I64">
					<dim>2</dim>
				</port>
			</input>
			<output>
				<port id="2" precision="FP32" names="StatefulPartitionedCall/model/flatten/Reshape:0">
					<dim>1</dim>
					<dim>1280</dim>
				</port>
			</output>
		</layer>
		<layer id="279" name="StatefulPartitionedCall/model/dense/MatMul/ReadVariableOp" type="Const" version="opset1">
			<data element_type="f32" shape="128, 1280" offset="8827404" size="655360"/>
			<output>
				<port id="0" precision="FP32" names="StatefulPartitionedCall/model/dense/MatMul/ReadVariableOp:0">
					<dim>128</dim>
					<dim>1280</dim>
				</port>
			</output>
		</layer>
		<layer id="280" name="StatefulPartitionedCall/model/dense/MatMul" type="MatMul" version="opset1">
			<data transpose_a="false" transpose_b="true"/>
			<input>
				<port id="0" precision="FP32">
					<dim>1</dim>
					<dim>1280</dim>
				</port>
				<port id="1" precision="FP32">
					<dim>128</dim>
					<dim>1280</dim>
				</port>
			</input>
			<output>
				<port id="2" precision="FP32" names="StatefulPartitionedCall/model/dense/MatMul:0">
					<dim>1</dim>
					<dim>128</dim>
				</port>
			</output>
		</layer>
		<layer id="281" name="StatefulPartitionedCall/model/dense/BiasAdd/ReadVariableOp" type="Const" version="opset1">
			<data element_type="f32" shape="1, 128" offset="9482764" size="512"/>
			<output>
				<port id="0" precision="FP32" names="StatefulPartitionedCall/model/dense/BiasAdd/ReadVariableOp:0">
					<dim>1</dim>
					<dim>128</dim>
				</port>
			</output>
		</layer>
		<layer id="282" name="StatefulPartitionedCall/model/dense/BiasAdd/Add" type="Add" version="opset1">
			<data auto_broadcast="numpy"/>
			<input>
				<port id="0" precision="FP32">
					<dim>1</dim>
					<dim>128</dim>
				</port>
				<port id="1" precision="FP32">
					<dim>1</dim>
					<dim>128</dim>
				</port>
			</input>
			<output>
				<port id="2" precision="FP32" names="StatefulPartitionedCall/model/dense/BiasAdd:0">
					<dim>1</dim>
					<dim>128</dim>
				</port>
			</output>
		</layer>
		<layer id="283" name="StatefulPartitionedCall/model/dense/Relu" type="ReLU" version="opset1">
			<input>
				<port id="0" precision="FP32">
					<dim>1</dim>
					<dim>128</dim>
				</port>
			</input>
			<output>
				<port id="1" precision="FP32" names="StatefulPartitionedCall/model/dense/Relu:0,StatefulPartitionedCall/model/dropout/Identity:0">
					<dim>1</dim>
					<dim>128</dim>
				</port>
			</output>
		</layer>
		<layer id="284" name="StatefulPartitionedCall/model/dense_1/MatMul/ReadVariableOp" type="Const" version="opset1">
			<data element_type="f32" shape="1, 128" offset="9483276" size="512"/>
			<output>
				<port id="0" precision="FP32" names="StatefulPartitionedCall/model/dense_1/MatMul/ReadVariableOp:0">
					<dim>1</dim>
					<dim>128</dim>
				</port>
			</output>
		</layer>
		<layer id="285" name="StatefulPartitionedCall/model/dense_1/MatMul" type="MatMul" version="opset1">
			<data transpose_a="false" transpose_b="true"/>
			<input>
				<port id="0" precision="FP32">
					<dim>1</dim>
					<dim>128</dim>
				</port>
				<port id="1" precision="FP32">
					<dim>1</dim>
					<dim>128</dim>
				</port>
			</input>
			<output>
				<port id="2" precision="FP32" names="StatefulPartitionedCall/model/dense_1/MatMul:0">
					<dim>1</dim>
					<dim>1</dim>
				</port>
			</output>
		</layer>
		<layer id="286" name="StatefulPartitionedCall/model/dense_1/BiasAdd/ReadVariableOp" type="Const" version="opset1">
			<data element_type="f32" shape="1, 1" offset="9483788" size="4"/>
			<output>
				<port id="0" precision="FP32" names="StatefulPartitionedCall/model/dense_1/BiasAdd/ReadVariableOp:0">
					<dim>1</dim>
					<dim>1</dim>
				</port>
			</output>
		</layer>
		<layer id="287" name="StatefulPartitionedCall/model/dense_1/BiasAdd/Add" type="Add" version="opset1">
			<data auto_broadcast="numpy"/>
			<input>
				<port id="0" precision="FP32">
					<dim>1</dim>
					<dim>1</dim>
				</port>
				<port id="1" precision="FP32">
					<dim>1</dim>
					<dim>1</dim>
				</port>
			</input>
			<output>
				<port id="2" precision="FP32" names="StatefulPartitionedCall/model/dense_1/BiasAdd:0">
					<dim>1</dim>
					<dim>1</dim>
				</port>
			</output>
		</layer>
		<layer id="288" name="StatefulPartitionedCall/model/dense_1/Sigmoid" type="Sigmoid" version="opset1">
			<input>
				<port id="0" precision="FP32">
					<dim>1</dim>
					<dim>1</dim>
				</port>
			</input>
			<output>
				<port id="1" precision="FP32" names="Func/StatefulPartitionedCall/output/_265:0,Identity:0,StatefulPartitionedCall/Identity:0,StatefulPartitionedCall/model/dense_1/Sigmoid:0">
					<dim>1</dim>
					<dim>1</dim>
				</port>
			</output>
		</layer>
		<layer id="289" name="Func/StatefulPartitionedCall/output/_265:0" type="Result" version="opset1">
			<input>
				<port id="0" precision="FP32">
					<dim>1</dim>
					<dim>1</dim>
				</port>
			</input>
		</layer>
	</layers>
	<edges>
		<edge from-layer="0" from-port="0" to-layer="2" to-port="0"/>
		<edge from-layer="1" from-port="0" to-layer="2" to-port="1"/>
		<edge from-layer="2" from-port="2" to-layer="4" to-port="0"/>
		<edge from-layer="3" from-port="0" to-layer="4" to-port="1"/>
		<edge from-layer="4" from-port="2" to-layer="6" to-port="0"/>
		<edge from-layer="5" from-port="0" to-layer="6" to-port="1"/>
		<edge from-layer="6" from-port="2" to-layer="8" to-port="0"/>
		<edge from-layer="7" from-port="0" to-layer="8" to-port="1"/>
		<edge from-layer="8" from-port="2" to-layer="9" to-port="0"/>
		<edge from-layer="9" from-port="1" to-layer="11" to-port="0"/>
		<edge from-layer="10" from-port="0" to-layer="11" to-port="1"/>
		<edge from-layer="11" from-port="2" to-layer="13" to-port="0"/>
		<edge from-layer="12" from-port="0" to-layer="13" to-port="1"/>
		<edge from-layer="13" from-port="2" to-layer="14" to-port="0"/>
		<edge from-layer="14" from-port="1" to-layer="16" to-port="0"/>
		<edge from-layer="15" from-port="0" to-layer="16" to-port="1"/>
		<edge from-layer="16" from-port="2" to-layer="18" to-port="0"/>
		<edge from-layer="17" from-port="0" to-layer="18" to-port="1"/>
		<edge from-layer="18" from-port="2" to-layer="20" to-port="0"/>
		<edge from-layer="19" from-port="0" to-layer="20" to-port="1"/>
		<edge from-layer="20" from-port="2" to-layer="22" to-port="0"/>
		<edge from-layer="21" from-port="0" to-layer="22" to-port="1"/>
		<edge from-layer="22" from-port="2" to-layer="23" to-port="0"/>
		<edge from-layer="23" from-port="1" to-layer="27" to-port="0"/>
		<edge from-layer="24" from-port="0" to-layer="27" to-port="1"/>
		<edge from-layer="25" from-port="0" to-layer="27" to-port="2"/>
		<edge from-layer="26" from-port="0" to-layer="27" to-port="3"/>
		<edge from-layer="27" from-port="4" to-layer="29" to-port="0"/>
		<edge from-layer="28" from-port="0" to-layer="29" to-port="1"/>
		<edge from-layer="29" from-port="2" to-layer="31" to-port="0"/>
		<edge from-layer="30" from-port="0" to-layer="31" to-port="1"/>
		<edge from-layer="31" from-port="2" to-layer="32" to-port="0"/>
		<edge from-layer="32" from-port="1" to-layer="34" to-port="0"/>
		<edge from-layer="33" from-port="0" to-layer="34" to-port="1"/>
		<edge from-layer="34" from-port="2" to-layer="36" to-port="0"/>
		<edge from-layer="35" from-port="0" to-layer="36" to-port="1"/>
		<edge from-layer="36" from-port="2" to-layer="38" to-port="0"/>
		<edge from-layer="36" from-port="2" to-layer="51" to-port="0"/>
		<edge from-layer="37" from-port="0" to-layer="38" to-port="1"/>
		<edge from-layer="38" from-port="2" to-layer="40" to-port="0"/>
		<edge from-layer="39" from-port="0" to-layer="40" to-port="1"/>
		<edge from-layer="40" from-port="2" to-layer="41" to-port="0"/>
		<edge from-layer="41" from-port="1" to-layer="43" to-port="0"/>
		<edge from-layer="42" from-port="0" to-layer="43" to-port="1"/>
		<edge from-layer="43" from-port="2" to-layer="45" to-port="0"/>
		<edge from-layer="44" from-port="0" to-layer="45" to-port="1"/>
		<edge from-layer="45" from-port="2" to-layer="46" to-port="0"/>
		<edge from-layer="46" from-port="1" to-layer="48" to-port="0"/>
		<edge from-layer="47" from-port="0" to-layer="48" to-port="1"/>
		<edge from-layer="48" from-port="2" to-layer="50" to-port="0"/>
		<edge from-layer="49" from-port="0" to-layer="50" to-port="1"/>
		<edge from-layer="50" from-port="2" to-layer="51" to-port="1"/>
		<edge from-layer="51" from-port="2" to-layer="53" to-port="0"/>
		<edge from-layer="52" from-port="0" to-layer="53" to-port="1"/>
		<edge from-layer="53" from-port="2" to-layer="55" to-port="0"/>
		<edge from-layer="54" from-port="0" to-layer="55" to-port="1"/>
		<edge from-layer="55" from-port="2" to-layer="56" to-port="0"/>
		<edge from-layer="56" from-port="1" to-layer="60" to-port="0"/>
		<edge from-layer="57" from-port="0" to-layer="60" to-port="1"/>
		<edge from-layer="58" from-port="0" to-layer="60" to-port="2"/>
		<edge from-layer="59" from-port="0" to-layer="60" to-port="3"/>
		<edge from-layer="60" from-port="4" to-layer="62" to-port="0"/>
		<edge from-layer="61" from-port="0" to-layer="62" to-port="1"/>
		<edge from-layer="62" from-port="2" to-layer="64" to-port="0"/>
		<edge from-layer="63" from-port="0" to-layer="64" to-port="1"/>
		<edge from-layer="64" from-port="2" to-layer="65" to-port="0"/>
		<edge from-layer="65" from-port="1" to-layer="67" to-port="0"/>
		<edge from-layer="66" from-port="0" to-layer="67" to-port="1"/>
		<edge from-layer="67" from-port="2" to-layer="69" to-port="0"/>
		<edge from-layer="68" from-port="0" to-layer="69" to-port="1"/>
		<edge from-layer="69" from-port="2" to-layer="71" to-port="0"/>
		<edge from-layer="69" from-port="2" to-layer="84" to-port="0"/>
		<edge from-layer="70" from-port="0" to-layer="71" to-port="1"/>
		<edge from-layer="71" from-port="2" to-layer="73" to-port="0"/>
		<edge from-layer="72" from-port="0" to-layer="73" to-port="1"/>
		<edge from-layer="73" from-port="2" to-layer="74" to-port="0"/>
		<edge from-layer="74" from-port="1" to-layer="76" to-port="0"/>
		<edge from-layer="75" from-port="0" to-layer="76" to-port="1"/>
		<edge from-layer="76" from-port="2" to-layer="78" to-port="0"/>
		<edge from-layer="77" from-port="0" to-layer="78" to-port="1"/>
		<edge from-layer="78" from-port="2" to-layer="79" to-port="0"/>
		<edge from-layer="79" from-port="1" to-layer="81" to-port="0"/>
		<edge from-layer="80" from-port="0" to-layer="81" to-port="1"/>
		<edge from-layer="81" from-port="2" to-layer="83" to-port="0"/>
		<edge from-layer="82" from-port="0" to-layer="83" to-port="1"/>
		<edge from-layer="83" from-port="2" to-layer="84" to-port="1"/>
		<edge from-layer="84" from-port="2" to-layer="86" to-port="0"/>
		<edge from-layer="84" from-port="2" to-layer="99" to-port="0"/>
		<edge from-layer="85" from-port="0" to-layer="86" to-port="1"/>
		<edge from-layer="86" from-port="2" to-layer="88" to-port="0"/>
		<edge from-layer="87" from-port="0" to-layer="88" to-port="1"/>
		<edge from-layer="88" from-port="2" to-layer="89" to-port="0"/>
		<edge from-layer="89" from-port="1" to-layer="91" to-port="0"/>
		<edge from-layer="90" from-port="0" to-layer="91" to-port="1"/>
		<edge from-layer="91" from-port="2" to-layer="93" to-port="0"/>
		<edge from-layer="92" from-port="0" to-layer="93" to-port="1"/>
		<edge from-layer="93" from-port="2" to-layer="94" to-port="0"/>
		<edge from-layer="94" from-port="1" to-layer="96" to-port="0"/>
		<edge from-layer="95" from-port="0" to-layer="96" to-port="1"/>
		<edge from-layer="96" from-port="2" to-layer="98" to-port="0"/>
		<edge from-layer="97" from-port="0" to-layer="98" to-port="1"/>
		<edge from-layer="98" from-port="2" to-layer="99" to-port="1"/>
		<edge from-layer="99" from-port="2" to-layer="101" to-port="0"/>
		<edge from-layer="100" from-port="0" to-layer="101" to-port="1"/>
		<edge from-layer="101" from-port="2" to-layer="103" to-port="0"/>
		<edge from-layer="102" from-port="0" to-layer="103" to-port="1"/>
		<edge from-layer="103" from-port="2" to-layer="104" to-port="0"/>
		<edge from-layer="104" from-port="1" to-layer="108" to-port="0"/>
		<edge from-layer="105" from-port="0" to-layer="108" to-port="1"/>
		<edge from-layer="106" from-port="0" to-layer="108" to-port="2"/>
		<edge from-layer="107" from-port="0" to-layer="108" to-port="3"/>
		<edge from-layer="108" from-port="4" to-layer="110" to-port="0"/>
		<edge from-layer="109" from-port="0" to-layer="110" to-port="1"/>
		<edge from-layer="110" from-port="2" to-layer="112" to-port="0"/>
		<edge from-layer="111" from-port="0" to-layer="112" to-port="1"/>
		<edge from-layer="112" from-port="2" to-layer="113" to-port="0"/>
		<edge from-layer="113" from-port="1" to-layer="115" to-port="0"/>
		<edge from-layer="114" from-port="0" to-layer="115" to-port="1"/>
		<edge from-layer="115" from-port="2" to-layer="117" to-port="0"/>
		<edge from-layer="116" from-port="0" to-layer="117" to-port="1"/>
		<edge from-layer="117" from-port="2" to-layer="119" to-port="0"/>
		<edge from-layer="117" from-port="2" to-layer="132" to-port="0"/>
		<edge from-layer="118" from-port="0" to-layer="119" to-port="1"/>
		<edge from-layer="119" from-port="2" to-layer="121" to-port="0"/>
		<edge from-layer="120" from-port="0" to-layer="121" to-port="1"/>
		<edge from-layer="121" from-port="2" to-layer="122" to-port="0"/>
		<edge from-layer="122" from-port="1" to-layer="124" to-port="0"/>
		<edge from-layer="123" from-port="0" to-layer="124" to-port="1"/>
		<edge from-layer="124" from-port="2" to-layer="126" to-port="0"/>
		<edge from-layer="125" from-port="0" to-layer="126" to-port="1"/>
		<edge from-layer="126" from-port="2" to-layer="127" to-port="0"/>
		<edge from-layer="127" from-port="1" to-layer="129" to-port="0"/>
		<edge from-layer="128" from-port="0" to-layer="129" to-port="1"/>
		<edge from-layer="129" from-port="2" to-layer="131" to-port="0"/>
		<edge from-layer="130" from-port="0" to-layer="131" to-port="1"/>
		<edge from-layer="131" from-port="2" to-layer="132" to-port="1"/>
		<edge from-layer="132" from-port="2" to-layer="134" to-port="0"/>
		<edge from-layer="132" from-port="2" to-layer="147" to-port="0"/>
		<edge from-layer="133" from-port="0" to-layer="134" to-port="1"/>
		<edge from-layer="134" from-port="2" to-layer="136" to-port="0"/>
		<edge from-layer="135" from-port="0" to-layer="136" to-port="1"/>
		<edge from-layer="136" from-port="2" to-layer="137" to-port="0"/>
		<edge from-layer="137" from-port="1" to-layer="139" to-port="0"/>
		<edge from-layer="138" from-port="0" to-layer="139" to-port="1"/>
		<edge from-layer="139" from-port="2" to-layer="141" to-port="0"/>
		<edge from-layer="140" from-port="0" to-layer="141" to-port="1"/>
		<edge from-layer="141" from-port="2" to-layer="142" to-port="0"/>
		<edge from-layer="142" from-port="1" to-layer="144" to-port="0"/>
		<edge from-layer="143" from-port="0" to-layer="144" to-port="1"/>
		<edge from-layer="144" from-port="2" to-layer="146" to-port="0"/>
		<edge from-layer="145" from-port="0" to-layer="146" to-port="1"/>
		<edge from-layer="146" from-port="2" to-layer="147" to-port="1"/>
		<edge from-layer="147" from-port="2" to-layer="149" to-port="0"/>
		<edge from-layer="147" from-port="2" to-layer="162" to-port="0"/>
		<edge from-layer="148" from-port="0" to-layer="149" to-port="1"/>
		<edge from-layer="149" from-port="2" to-layer="151" to-port="0"/>
		<edge from-layer="150" from-port="0" to-layer="151" to-port="1"/>
		<edge from-layer="151" from-port="2" to-layer="152" to-port="0"/>
		<edge from-layer="152" from-port="1" to-layer="154" to-port="0"/>
		<edge from-layer="153" from-port="0" to-layer="154" to-port="1"/>
		<edge from-layer="154" from-port="2" to-layer="156" to-port="0"/>
		<edge from-layer="155" from-port="0" to-layer="156" to-port="1"/>
		<edge from-layer="156" from-port="2" to-layer="157" to-port="0"/>
		<edge from-layer="157" from-port="1" to-layer="159" to-port="0"/>
		<edge from-layer="158" from-port="0" to-layer="159" to-port="1"/>
		<edge from-layer="159" from-port="2" to-layer="161" to-port="0"/>
		<edge from-layer="160" from-port="0" to-layer="161" to-port="1"/>
		<edge from-layer="161" from-port="2" to-layer="162" to-port="1"/>
		<edge from-layer="162" from-port="2" to-layer="164" to-port="0"/>
		<edge from-layer="163" from-port="0" to-layer="164" to-port="1"/>
		<edge from-layer="164" from-port="2" to-layer="166" to-port="0"/>
		<edge from-layer="165" from-port="0" to-layer="166" to-port="1"/>
		<edge from-layer="166" from-port="2" to-layer="167" to-port="0"/>
		<edge from-layer="167" from-port="1" to-layer="169" to-port="0"/>
		<edge from-layer="168" from-port="0" to-layer="169" to-port="1"/>
		<edge from-layer="169" from-port="2" to-layer="171" to-port="0"/>
		<edge from-layer="170" from-port="0" to-layer="171" to-port="1"/>
		<edge from-layer="171" from-port="2" to-layer="172" to-port="0"/>
		<edge from-layer="172" from-port="1" to-layer="174" to-port="0"/>
		<edge from-layer="173" from-port="0" to-layer="174" to-port="1"/>
		<edge from-layer="174" from-port="2" to-layer="176" to-port="0"/>
		<edge from-layer="175" from-port="0" to-layer="176" to-port="1"/>
		<edge from-layer="176" from-port="2" to-layer="178" to-port="0"/>
		<edge from-layer="176" from-port="2" to-layer="191" to-port="0"/>
		<edge from-layer="177" from-port="0" to-layer="178" to-port="1"/>
		<edge from-layer="178" from-port="2" to-layer="180" to-port="0"/>
		<edge from-layer="179" from-port="0" to-layer="180" to-port="1"/>
		<edge from-layer="180" from-port="2" to-layer="181" to-port="0"/>
		<edge from-layer="181" from-port="1" to-layer="183" to-port="0"/>
		<edge from-layer="182" from-port="0" to-layer="183" to-port="1"/>
		<edge from-layer="183" from-port="2" to-layer="185" to-port="0"/>
		<edge from-layer="184" from-port="0" to-layer="185" to-port="1"/>
		<edge from-layer="185" from-port="2" to-layer="186" to-port="0"/>
		<edge from-layer="186" from-port="1" to-layer="188" to-port="0"/>
		<edge from-layer="187" from-port="0" to-layer="188" to-port="1"/>
		<edge from-layer="188" from-port="2" to-layer="190" to-port="0"/>
		<edge from-layer="189" from-port="0" to-layer="190" to-port="1"/>
		<edge from-layer="190" from-port="2" to-layer="191" to-port="1"/>
		<edge from-layer="191" from-port="2" to-layer="193" to-port="0"/>
		<edge from-layer="191" from-port="2" to-layer="206" to-port="0"/>
		<edge from-layer="192" from-port="0" to-layer="193" to-port="1"/>
		<edge from-layer="193" from-port="2" to-layer="195" to-port="0"/>
		<edge from-layer="194" from-port="0" to-layer="195" to-port="1"/>
		<edge from-layer="195" from-port="2" to-layer="196" to-port="0"/>
		<edge from-layer="196" from-port="1" to-layer="198" to-port="0"/>
		<edge from-layer="197" from-port="0" to-layer="198" to-port="1"/>
		<edge from-layer="198" from-port="2" to-layer="200" to-port="0"/>
		<edge from-layer="199" from-port="0" to-layer="200" to-port="1"/>
		<edge from-layer="200" from-port="2" to-layer="201" to-port="0"/>
		<edge from-layer="201" from-port="1" to-layer="203" to-port="0"/>
		<edge from-layer="202" from-port="0" to-layer="203" to-port="1"/>
		<edge from-layer="203" from-port="2" to-layer="205" to-port="0"/>
		<edge from-layer="204" from-port="0" to-layer="205" to-port="1"/>
		<edge from-layer="205" from-port="2" to-layer="206" to-port="1"/>
		<edge from-layer="206" from-port="2" to-layer="208" to-port="0"/>
		<edge from-layer="207" from-port="0" to-layer="208" to-port="1"/>
		<edge from-layer="208" from-port="2" to-layer="210" to-port="0"/>
		<edge from-layer="209" from-port="0" to-layer="210" to-port="1"/>
		<edge from-layer="210" from-port="2" to-layer="211" to-port="0"/>
		<edge from-layer="211" from-port="1" to-layer="215" to-port="0"/>
		<edge from-layer="212" from-port="0" to-layer="215" to-port="1"/>
		<edge from-layer="213" from-port="0" to-layer="215" to-port="2"/>
		<edge from-layer="214" from-port="0" to-layer="215" to-port="3"/>
		<edge from-layer="215" from-port="4" to-layer="217" to-port="0"/>
		<edge from-layer="216" from-port="0" to-layer="217" to-port="1"/>
		<edge from-layer="217" from-port="2" to-layer="219" to-port="0"/>
		<edge from-layer="218" from-port="0" to-layer="219" to-port="1"/>
		<edge from-layer="219" from-port="2" to-layer="220" to-port="0"/>
		<edge from-layer="220" from-port="1" to-layer="222" to-port="0"/>
		<edge from-layer="221" from-port="0" to-layer="222" to-port="1"/>
		<edge from-layer="222" from-port="2" to-layer="224" to-port="0"/>
		<edge from-layer="223" from-port="0" to-layer="224" to-port="1"/>
		<edge from-layer="224" from-port="2" to-layer="226" to-port="0"/>
		<edge from-layer="224" from-port="2" to-layer="239" to-port="0"/>
		<edge from-layer="225" from-port="0" to-layer="226" to-port="1"/>
		<edge from-layer="226" from-port="2" to-layer="228" to-port="0"/>
		<edge from-layer="227" from-port="0" to-layer="228" to-port="1"/>
		<edge from-layer="228" from-port="2" to-layer="229" to-port="0"/>
		<edge from-layer="229" from-port="1" to-layer="231" to-port="0"/>
		<edge from-layer="230" from-port="0" to-layer="231" to-port="1"/>
		<edge from-layer="231" from-port="2" to-layer="233" to-port="0"/>
		<edge from-layer="232" from-port="0" to-layer="233" to-port="1"/>
		<edge from-layer="233" from-port="2" to-layer="234" to-port="0"/>
		<edge from-layer="234" from-port="1" to-layer="236" to-port="0"/>
		<edge from-layer="235" from-port="0" to-layer="236" to-port="1"/>
		<edge from-layer="236" from-port="2" to-layer="238" to-port="0"/>
		<edge from-layer="237" from-port="0" to-layer="238" to-port="1"/>
		<edge from-layer="238" from-port="2" to-layer="239" to-port="1"/>
		<edge from-layer="239" from-port="2" to-layer="241" to-port="0"/>
		<edge from-layer="239" from-port="2" to-layer="254" to-port="0"/>
		<edge from-layer="240" from-port="0" to-layer="241" to-port="1"/>
		<edge from-layer="241" from-port="2" to-layer="243" to-port="0"/>
		<edge from-layer="242" from-port="0" to-layer="243" to-port="1"/>
		<edge from-layer="243" from-port="2" to-layer="244" to-port="0"/>
		<edge from-layer="244" from-port="1" to-layer="246" to-port="0"/>
		<edge from-layer="245" from-port="0" to-layer="246" to-port="1"/>
		<edge from-layer="246" from-port="2" to-layer="248" to-port="0"/>
		<edge from-layer="247" from-port="0" to-layer="248" to-port="1"/>
		<edge from-layer="248" from-port="2" to-layer="249" to-port="0"/>
		<edge from-layer="249" from-port="1" to-layer="251" to-port="0"/>
		<edge from-layer="250" from-port="0" to-layer="251" to-port="1"/>
		<edge from-layer="251" from-port="2" to-layer="253" to-port="0"/>
		<edge from-layer="252" from-port="0" to-layer="253" to-port="1"/>
		<edge from-layer="253" from-port="2" to-layer="254" to-port="1"/>
		<edge from-layer="254" from-port="2" to-layer="256" to-port="0"/>
		<edge from-layer="255" from-port="0" to-layer="256" to-port="1"/>
		<edge from-layer="256" from-port="2" to-layer="258" to-port="0"/>
		<edge from-layer="257" from-port="0" to-layer="258" to-port="1"/>
		<edge from-layer="258" from-port="2" to-layer="259" to-port="0"/>
		<edge from-layer="259" from-port="1" to-layer="261" to-port="0"/>
		<edge from-layer="260" from-port="0" to-layer="261" to-port="1"/>
		<edge from-layer="261" from-port="2" to-layer="263" to-port="0"/>
		<edge from-layer="262" from-port="0" to-layer="263" to-port="1"/>
		<edge from-layer="263" from-port="2" to-layer="264" to-port="0"/>
		<edge from-layer="264" from-port="1" to-layer="266" to-port="0"/>
		<edge from-layer="265" from-port="0" to-layer="266" to-port="1"/>
		<edge from-layer="266" from-port="2" to-layer="268" to-port="0"/>
		<edge from-layer="267" from-port="0" to-layer="268" to-port="1"/>
		<edge from-layer="268" from-port="2" to-layer="270" to-port="0"/>
		<edge from-layer="269" from-port="0" to-layer="270" to-port="1"/>
		<edge from-layer="270" from-port="2" to-layer="272" to-port="0"/>
		<edge from-layer="271" from-port="0" to-layer="272" to-port="1"/>
		<edge from-layer="272" from-port="2" to-layer="273" to-port="0"/>
		<edge from-layer="273" from-port="1" to-layer="274" to-port="0"/>
		<edge from-layer="274" from-port="1" to-layer="276" to-port="0"/>
		<edge from-layer="275" from-port="0" to-layer="276" to-port="1"/>
		<edge from-layer="276" from-port="2" to-layer="278" to-port="0"/>
		<edge from-layer="277" from-port="0" to-layer="278" to-port="1"/>
		<edge from-layer="278" from-port="2" to-layer="280" to-port="0"/>
		<edge from-layer="279" from-port="0" to-layer="280" to-port="1"/>
		<edge from-layer="280" from-port="2" to-layer="282" to-port="0"/>
		<edge from-layer="281" from-port="0" to-layer="282" to-port="1"/>
		<edge from-layer="282" from-port="2" to-layer="283" to-port="0"/>
		<edge from-layer="283" from-port="1" to-layer="285" to-port="0"/>
		<edge from-layer="284" from-port="0" to-layer="285" to-port="1"/>
		<edge from-layer="285" from-port="2" to-layer="287" to-port="0"/>
		<edge from-layer="286" from-port="0" to-layer="287" to-port="1"/>
		<edge from-layer="287" from-port="2" to-layer="288" to-port="0"/>
		<edge from-layer="288" from-port="1" to-layer="289" to-port="0"/>
	</edges>
	<meta_data>
		<MO_version value="2021.4.2-3976-0943ed67223-refs/pull/539/head"/>
		<cli_parameters>
			<batch value="1"/>
			<caffe_parser_path value="DIR"/>
			<data_type value="float"/>
			<disable_nhwc_to_nchw value="False"/>
			<disable_omitting_optional value="False"/>
			<disable_resnet_optimization value="False"/>
			<disable_weights_compression value="False"/>
			<enable_concat_optimization value="False"/>
			<enable_flattening_nested_params value="False"/>
			<enable_ssd_gluoncv value="False"/>
			<extensions value="DIR"/>
			<framework value="tf"/>
			<freeze_placeholder_with_value value="{}"/>
			<generate_deprecated_IR_V7 value="False"/>
			<input_model_is_text value="False"/>
			<k value="DIR/CustomLayersMapping.xml"/>
			<keep_shape_ops value="True"/>
			<legacy_ir_generation value="False"/>
			<legacy_mxnet_model value="False"/>
			<log_level value="ERROR"/>
			<mean_scale_values value="[(array([127.5, 127.5, 127.5]), array([127.5, 127.5, 127.5]))]"/>
			<mean_values value="[127.5,127.5,127.5]"/>
			<model_name value="saved_model"/>
			<output_dir value="DIR"/>
			<placeholder_data_types value="{}"/>
			<progress value="False"/>
			<remove_memory value="False"/>
			<remove_output_softmax value="False"/>
			<reverse_input_channels value="True"/>
			<save_params_from_nd value="False"/>
			<saved_model_dir value="DIR"/>
			<scale_values value="[127.5,127.5,127.5]"/>
			<silent value="False"/>
			<static_shape value="False"/>
			<stream_output value="False"/>
			<transform value=""/>
			<unset unset_cli_parameters="counts, disable_fusing, disable_gfusing, finegrain_fusing, input, input_checkpoint, input_meta_graph, input_model, input_proto, input_shape, input_symbol, mean_file, mean_file_offsets, move_to_preprocess, nd_prefix_name, output, placeholder_shapes, pretrained_model_name, saved_model_tags, scale, tensorboard_logdir, tensorflow_custom_layer_libraries, tensorflow_custom_operations_config_update, tensorflow_object_detection_api_pipeline_config, tensorflow_use_custom_operations_config, transformations_config"/>
		</cli_parameters>
	</meta_data>
</net>
